mlruns_old/368551665169468693/b028808258224739b612385cbfc80a56/artifacts/model/data/model.pth (torch, 25768 bytes, 7 tensors)

weight f4 [32, 14]
-0.041234177 -0.18711054 -0.38402358 0.050984498 -0.039244566 -0.0006300886 0.0043706503 -0.14103703
0.13419822 0.14634821 0.36041513 -0.1117433 0.69969165 -0.0039774096 0.0073505547 0.2844238
-0.069714114 0.0801804 0.28385806 -0.12380591 -0.14975047 -0.17114596 -0.046567675 0.2474125
-0.111894965 0.12007347 0.39815533 0.37816083 0.0009401197 0.065849654 -0.5738984 -0.09044559
0.088751815 -0.032217383 0.0065680486 -0.1585441 -0.22254756 0.44626695 0.032348733 -0.110530786
0.5276951 -0.20597386 0.09961235 -0.0863448 0.10404941 0.25647303 -0.062140193 -0.14369288
0.30244318 0.19068033 0.07605621 0.3330603 -0.18954672 0.22637405 0.3487902 0.2599425
0.17156348 -0.038041666 0.0775574 -0.12023327 -0.15998389 -0.005582076 0.16623694 -0.30823377
-0.052301932 0.58734983 -0.13515022 -0.24408753 0.5297165 -0.16939817 -0.020459646 0.06478931
-0.029696696 0.29894406 -0.07574813 0.21175104 0.089497216 -0.21415062 -0.092265084 -0.21063434
-0.06431116 -0.051693723 0.47109422 0.3699864 0.31515202 -0.032730184 0.01827116 -0.08525891
0.06624078 0.04689866 0.100367546 -0.24104057 0.011532274 0.12052159 0.09931025 -0.0059846034
0.5367729 0.4202097 -0.045221135 -0.055611994 0.20220126 0.20110959 0.053178247 0.24091768
-0.07663232 -0.24365398 0.13657697 0.224388 0.23215975 0.21224879 0.7925541 0.033425182
0.13826212 -0.2605753 0.023516413 -0.07266455 -0.20736969 0.071965404 -0.08500202 -0.17485547
-0.09300345 0.110465035 0.2769085 -0.13508986 0.66714615 0.007416934 0.04175857 0.04310142
0.2113192 0.04537556 0.06573573 -0.19461676 0.33274493 -0.0531956 -0.22512649 -0.10611426
0.22567303 0.19640245 0.50917065 0.026776247 0.17634025 -0.117202885 0.19632821 0.2079777
0.08113735 -0.11021766 0.09000822 0.13154839 -0.015392012 0.2578411 0.13684966 -0.13800815
0.3565081 0.33942506 -0.11043386 0.2936106 -0.16134314 0.09462756 0.14695397 0.004041326
0.25148982 -0.09779369 0.011269605 0.20109747 -0.07449033 -0.3104279 0.36668193 0.003318299
0.07623654 -0.11023745 0.1563974 0.097266056 0.06915166 0.08999896 -0.099068694 -0.3861677
0.11396615 0.4145778 -0.30942208 0.23422498 0.50898767 -0.20449392 0.12117203 0.032004926
-0.09579363 -0.057879835 0.13656563 -0.117419325 -0.11566734 -0.22341189 -0.28351167 -0.20253702
-0.1871596 0.1235712 0.3842493 0.2228942 0.25520113 0.22143619 0.10056586 0.040855996
0.08619934 -0.20012914 -0.12801614 -0.40611896 0.065223485 0.08677545 0.10709434 0.2379546
0.30792713 -0.043621276 0.058504093 0.12040126 0.11859877 0.21742792 -0.11791276 -0.21078835
0.19974467 0.0909049 -0.20878235 -0.053181592 0.18928696 -0.16151941 0.7521954 0.2569017
0.26585305 0.3111531 -0.20183451 -0.306134 -0.16504383 0.18936308 -0.19795811 -0.13978338
-0.04150865 -0.20548095 0.09516237 -0.074970335 0.53205734 0.23821113 0.020836363 0.050698146
-0.08898385 -0.14044571 -0.2758606 -0.24994344 -0.28768882 0.02907111 -0.017397871 -0.18995121
0.18165097 0.29222456 -0.0031406027 0.2816743 0.2533316 -0.21015805 0.15643173 0.19016533
00000000: 2be5 28bd e899 3fbe bd9e c4be 1fd5 503d
00000010: e9be 20bd 882c 25ba ac37 8f3b 036c 10be
00000020: 426b 093e 4edc 153e 5588 b83e acd9 e4bd
00000030: fe1e 333f ee54 82bb ecdc f03b ff9f 913e
00000040: 46c6 8ebd 9f35 a43d d855 913e f48d fdbd
00000050: 3058 19be e340 2fbe bfbd 3ebd b459 7d3e
00000060: 3029 e5bd 14e9 f53d 04db cb3e 4c9e c13e
00000070: 5d72 763a 2fdc 863d 01eb 12bf 8a3b b9bd
00000080: 83c3 b53d 60f6 03bd c938 d73b 6259 22be
00000090: 82e3 63be 1a7d e43e 1b80 043d f75d e2bd
000000a0: 0717 073f d0ea 52be 8f01 cc3d 8bd5 b0bd
000000b0: db17 d53d 6f50 833e b786 7ebd 3a24 13be
000000c0: d5d9 9a3e b441 433e 5cc3 9b3d e186 aa3e
000000d0: 8918 42be 99ce 673e a194 b23e 2f17 853e
000000e0: 56ae 2f3e 94d1 1bbd 6ad6 9e3d dc3c f6bd
000000f0: d1d2 23be d9e9 b6bb 043a 2a3e d1d0 9dbe
00000100: 8d3a 56bd 8f5c 163f d264 0abe 15f2 79be
00000110: 809b 073f b776 2dbe fd9a a7bc 42b0 843d
00000120: 7c46 f3bc 320f 993e d621 9bbd 44d5 583e
00000130: 514a b73d 4d4a 5bbe 7af5 bcbd 87b0 57be
00000140: 92b5 83bd ccbc 53bd 4333 f13e db6e bd3e
00000150: 9b5b a13e 1610 06bd 66ad 953c 399c aebd
00000160: 3fa9 873d cf18 403d 808d cd3d 57d3 76be
00000170: ddf1 3c3c 06d4 f63d 2c63 cb3d 7e1a c4bb
00000180: f369 093f ba25 d73e cc39 39bd 67c9 63bd
00000190: d90d 4f3e acef 4d3e 6fd1 593d 20b3 763e
000001a0: 68f1 9cbd 6e80 79be d5da 0b3e f8c5 653e
000001b0: 49bb 6d3e bf57 593e d3e4 4a3f d8e8 083d
000001c0: 9694 0d3e 206a 85be 7ea5 c03c 27d1 94bd
000001d0: b858 54be 9962 933d 8a15 aebd 500d 33be
000001e0: 9878 bebd 7e3b e23d f3c6 8d3e ff54 0abe
000001f0: 17ca 2a3f c009 f33b 090b 2b3d 1d8b 303d
00000200: 0f64 583e b9db 393d 74a0 863d 9e49 47be
00000210: 8b5d aa3e a1e3 59bd 8f87 66be 6f52 d9bd
00000220: d516 673e b91d 493e 0259 023f dc59 db3c
00000230: 8a92 343e 1108 f0bd 430a 493e 1bf8 543e
00000240: 572b a63d ccb9 e1bd 3b56 b83d 9fb4 063e
00000250: c72e 7cbc c003 843e 5122 0c3e 0252 0dbe
00000260: 3b88 b63e 1fc9 ad3e 262b e2bd 2154 963e
00000270: 2337 25be 18cc c13d 1a7b 163e 1a6d 843b
00000280: 46c3 803e 0f48 c8bd 26a4 383c 7fec 4d3e
00000290: 638e 98bd 68f0 9ebe bcbd bb3e d277 593b
000002a0: e721 9c3d 2cc4 e1bd a426 203e 6d33 c73d
000002b0: 639f 8d3d 6051 b83d 87e4 cabd c6b7 c5be
000002c0: 1667 e93d 8b43 d43e 926c 9ebe acd8 6f3e
000002d0: 044d 023f db66 51be 0b29 f83d 9917 033d
000002e0: 732f c4bd 6813 6dbd dcd7 0b3e 8b79 f0bd
000002f0: 00e3 ecbd 16c6 64be 7128 91be dd65 4fbe
00000300: c4a6 3fbe e612 fd3d 53bc c43e 613e 643e
00000310: b9a9 823e 2bc0 623e 79f5 cd3d 9e58 273d
00000320: 4889 b03d a7ee 4cbe aa16 03be d3ee cfbe
00000330: e493 853d 54b7 b13d 4754 db3d 5faa 733e
00000340: a0a8 9d3e 39ac 32bd fda1 6f3d f094 f63d
00000350: e9e3 f23d 6da5 5e3e 3f7c f1bd e7d8 57be
00000360: de89 4c3e 592c ba3d 0acb 55be f1d4 59bd
00000370: 71d4 413e 5865 25be e18f 403f 9f88 833e
00000380: e41d 883e 764f 9f3e b5ad 4ebe 98bd 9cbe
00000390: 4001 29be 65e8 413e 88b5 4abe 6023 0fbe
000003a0: f904 2abd 9969 52be 7de4 c23d 0c8a 99bd
000003b0: e934 083f 9eed 733e 05b1 aa3c dca8 4f3d
000003c0: 2a3d b6bd 00d1 0fbe 9a3d 8dbe 2cf1 7fbe
000003d0: f34b 93be 8926 ee3c fb85 8ebc 9282 42be
000003e0: b602 3a3e 759e 953e 92d2 4dbb 9d37 903e
000003f0: aeb4 813e ac33 57be a42f 203e b3ba 423e

bias f4 [32]
0.39485544 0.40627983 0.26855302 -0.026132686 0.41507995 0.15593912 0.29043138 0.4738893
0.32439172 0.12743458 0.26883182 0.33169457 0.1380396 0.22680715 0.1576844 0.46965355
0.054391675 0.005110033 0.3656918 0.45571643 0.17859511 0.43444484 -0.048237335 0.06113688
0.5206944 0.20816594 0.55202454 0.48402345 0.36478257 -0.067990065 0.48584464 -0.091307454
00000000: 7e2a ca3e e903 d03e c87f 893e 3714 d6bc
00000010: 5c85 d43e 81ae 1f3e 6cb3 943e 9ea1 f23e
00000020: ac16 a63e 367e 023e 53a4 893e dfd3 a93e
00000030: 415a 0d3e 2240 683e 0578 213e 6e76 f03e
00000040: cec9 5e3d 1072 a73b f53b bb3e aa53 e93e
00000050: a3e1 363e 8e6f de3e 8394 45bd aa6a 7a3d
00000060: 3a4c 053f 7429 553e 7b51 0d3f ecd1 f73e
00000070: c8c4 ba3e 603e 8bbd a1c0 f83e 67ff babd

weight f4 [64, 32]
0.30353713 0.14163321 0.29563168 0.017565612 0.2103898 0.22800097 0.2730897 0.14155707
-0.0358037 -0.10364451 0.17116494 0.13335441 0.15019926 0.036223754 -0.05638077 0.20241387
-0.09497556 -0.08497692 0.24728444 0.27960286 0.04328314 0.15193817 0.16528061 0.03235336
0.24491827 0.18347122 -0.039706226 0.023743682 -0.017915413 0.013977369 0.24536437 0.10708333
0.25191668 0.18170463 0.34934103 0.18746713 0.22591856 0.21906243 0.052960902 0.20921618
0.05896653 -0.039150547 -0.005214752 0.10541709 0.02025641 -0.10290069 0.15853162 0.1113512
-0.032722436 0.05120154 0.21998933 0.32592154 -0.03271143 0.22576717 -0.13243197 -0.022037478
0.3122796 0.22559322 0.09853581 0.116093226 0.25766966 0.025069166 0.015159061 0.17241517
0.26464662 -0.02780119 0.3344058 0.21055883 0.36336014 0.12966329 0.20663044 0.19438694
0.012553243 0.166403 0.18093084 0.119975805 0.24766947 0.086502194 0.12534063 0.09086312
0.053480398 0.025294635 0.29680654 0.33763027 -0.057977356 0.13174269 -0.07260557 -0.076967895
0.12840576 0.43882373 0.012541257 0.21880479 0.23349527 0.06976225 0.10976321 0.029103465
0.074193895 0.027517 0.398945 0.038279537 0.31765613 -0.066377565 0.15519391 0.011597409
-0.031201134 -0.006277089 0.20554695 0.10722766 0.16988635 0.13352011 -0.03149007 0.11366071
-0.11415624 0.013681929 0.042431183 0.1730207 0.12457253 0.09372498 0.18219496 0.03153299
0.14251636 0.41977608 0.159335 0.10358898 0.17798764 0.0715233 0.25945175 0.092292584
0.28391218 0.11691277 0.16287579 -0.0932453 0.10361981 -0.10562811 0.119307846 0.091873504
0.16881688 0.15214688 -0.0134947905 -0.06662376 -0.048623323 -0.04374657 0.15610377 0.20248733
0.0045169923 0.032503217 0.010752392 0.26492774 -0.094564885 0.123755276 -0.12830354 -0.0067059407
0.24543546 0.31522906 0.18634647 0.06525318 0.17370899 -0.066900894 0.1840005 0.3276007
0.15553023 0.13905711 -0.09936743 -0.015657775 0.029141735 0.02127169 0.059791587 0.063259155
-0.08714772 -0.101572126 -0.14247712 -0.15654552 -0.13403964 -0.08327374 -0.04542336 -0.087820776
-0.18396606 0.044020608 0.13196723 -0.030899728 -0.039368205 0.035000674 -0.057796482 -0.1505971
-0.11057886 -0.06128236 0.0040987157 -0.14698619 0.029789897 -0.14785811 0.11795778 -0.01017347
0.26418677 -0.06335614 0.2432132 -0.121877655 0.18723701 0.18763532 0.21035188 0.21594481
-0.12011017 0.10262884 0.06256039 0.003173537 0.1524492 0.18982121 -0.09583866 -0.067907766
-0.0030649682 -0.13290405 0.1636393 0.31530458 -0.062669024 0.082045026 -0.15113045 0.05229473
-0.06437073 0.34784812 -0.0879845 0.26777947 -0.128947 0.07680166 0.132183 0.16422255
0.0400748 -0.056935534 0.19038667 0.12103535 0.29526302 0.15425529 0.105994485 0.11049781
-0.07165189 0.16217135 0.19953533 0.10289749 0.024641901 0.012114559 -0.011585677 0.20340511
0.062152393 0.16688332 0.1117399 0.107985176 0.05504355 0.14809945 0.20639125 -0.14470725
0.11726797 0.112592585 0.0993795 0.0039113974 0.15833183 0.04631296 0.115900986 0.0837509
00000000: 3869 9b3e 4c08 113e 095d 973e c2e5 8f3c
00000010: 6c70 573e 1679 693e 6ad2 8b3e 56f4 103e
00000020: e7a6 12bd 9343 d4bd dd45 2f3e 0f8e 083e
00000030: d6cd 193e 5c5f 143d 86ef 66bd 9545 4f3e
00000040: 8c82 c2bd 6108 aebd 2238 7d3e 1b28 8f3e
00000050: a949 313d ae95 1b3e 523f 293e f584 043d
00000060: dbcb 7a3e e1df 3b3e ffa2 22bd 1c82 c23c
00000070: 58c3 92bc 5601 653c cc40 7b3e 814e db3d
00000080: 39fb 803e c710 3a3e d4dc b23e 62f7 3f3e
00000090: 3257 673e e751 603e 88ed 583d c43c 563e
000000a0: e386 713d 535c 20bd 83e0 aabb eae4 d73d
000000b0: c5f0 a53c 99bd d2bd 1d56 223e 190c e43d
000000c0: f607 06bd b5b8 513d e244 613e 30df a63e
000000d0: 6cfc 05bd 822f 673e 3f9c 07be f187 b4bc
000000e0: 1de3 9f3e e901 673e 25cd c93d 49c2 ed3d
000000f0: 47ed 833e da5d cd3c b65d 783c 9a8d 303e
00000100: c37f 873e 52bf e3bc 3d37 ab3e bc9c 573e
00000110: 570a ba3e 74c6 043e ee96 533e 5f0d 473e
00000120: 1eac 4d3c 8c65 2a3e ef45 393e e0b5 f53d
00000130: 119d 7d3e 1028 b13d 4b59 003e 7216 ba3d
00000140: 430e 5b3d b236 cf3c 07f7 973e e0dd ac3e
00000150: aa79 6dbd 8ee7 063e 3bb2 94bd 58a1 9dbd
00000160: cd7c 033e 81ad e03e d879 4d3c 5d0e 603e
00000170: 6219 6f3e 83df 8e3d 89cb e03d 646a ee3c
00000180: f8f2 973d 556b e13c 8542 cc3e 01cb 1c3d
00000190: d3a3 a23e f6f0 87bd 27eb 1e3e 0f03 3e3c
000001a0: 8599 ffbc 0ab0 cdbb e67a 523e 2d9a db3d
000001b0: b0f6 2d3e 7fb9 083e bbfb 00bd f2c6 e83d
000001c0: bfca e9bd 2b2a 603c 52cc 2d3d 572c 313e
000001d0: e21f ff3d e2f2 bf3d 5191 3a3e bd28 013d
000001e0: cfef 113e e4ec d63e b728 233e 7626 d43d
000001f0: 6442 363e cf7a 923d dcd6 843e e503 bd3d
00000200: f05c 913e f66f ef3d e9c8 263e 64f7 bebd
00000210: 9f36 d43d 8d53 d8bd ac57 f43d 2d28 bc3d
00000220: 55de 2c3e 64cc 1b3e 4119 5dbc 0a72 88bd
00000230: 4029 47bd 9a2f 33bd abd9 1f3e d758 4f3e
00000240: 4703 943b 1822 053d cd2a 303c 9ca4 873e
00000250: 3cab c1bd 6873 fd3d 0162 03be 82bd dbbb
00000260: 6f53 7b3e b465 a13e 9cd1 3e3e 76a3 853d
00000270: c5e0 313e 5603 89bd a16a 3c3e 47bb a73e
00000280: 5143 1f3e fd64 0e3e 2781 cbbd bc44 80bc
00000290: a6ba ee3c f841 ae3c 06e8 743d 048e 813d
000002a0: 817a b2bd 0c05 d0bd 86e5 11be 784d 20be
000002b0: b041 09be 6c8b aabd d80d 3abd 61db b3bd
000002c0: 9961 3cbe f44e 343d 6b22 073e 6d21 fdbc
000002d0: 8e40 21bd de5c 0f3d 01bc 6cbd 2036 1abe
000002e0: 2b77 e2bd 3603 7bbd 854e 863b 8c83 16be
000002f0: f109 f43c 1e68 17be d993 f13d a0ae 26bc
00000300: 7d43 873e ddc0 81bd e20c 793e fe9a f9bd
00000310: 0fbb 3f3e 7923 403e 7c66 573e a320 5d3e
00000320: 52fc f5bd 122f d23d a91f 803d 1efb 4f3b
00000330: a51b 1c3e 7e60 423e 0f47 c4bd 3a13 8bbd
00000340: a2dd 48bb 0018 08be 1091 273e 9a6f a13e
00000350: 9e58 80bd 3907 a83d f1c1 1abe 0033 563d
00000360: cdd4 83bd 2619 b23e 3831 b4bd 641a 893e
00000370: af0a 04be 304a 9d3d fb5a 073e f529 283e
00000380: 7925 243d 3c35 69bd b9f4 423e 62e1 f73d
00000390: b72c 973e 19f5 1d3e a313 d93d ad4c e23d
000003a0: 3abe 92bd 3f10 263e fd52 4c3e ebbb d23d
000003b0: d0dd c93c 257c 463c dad1 3dbc 6e49 503e
000003c0: 8293 7e3d 76e3 2a3e e4d7 e43d 5527 dd3d
000003d0: 5875 613d 62a7 173e 3a58 533e 232e 14be
000003e0: 312a f03d f196 e63d 7b87 cb3d 2e2b 803b
000003f0: bd21 223e a9b2 3d3d 7f5d ed3d 9885 ab3d

bias f4 [64]
0.09030115 0.1600569 0.024158714 0.28665647 0.18760104 -0.0733333 0.25716144 0.046864167
0.3075979 0.28514698 0.3423106 0.16554977 0.5313763 0.16434644 0.11267216 0.32798952
0.3236217 0.13869292 0.008227086 0.1821268 0.33275935 0.19379397 0.118317 0.19621573
0.08015823 0.1818495 0.26705033 0.064916305 0.016483672 0.25238642 0.060681246 0.26553354
0.07595094 0.07246183 0.20845538 0.0656201 0.1806338 0.27084863 0.007431982 0.18105243
0.1271102 0.106403485 0.18184242 0.22003746 0.33725458 0.12159227 0.1629116 0.2792287
0.033182487 0.3049593 0.31324956 0.22895266 0.3077464 0.13765734 0.1506143 0.04327903
0.029116273 0.054075025 0.17614913 0.062061217 0.28016087 0.25773227 0.085257344 -0.0032207794
00000000: cfef b83d f5e5 233e 7fe8 c53c a3c4 923e
00000010: 7d1a 403e c52f 96bd aaaa 833e a4f4 3f3d
00000020: 797d 9d3e c9fe 913e 5643 af3e e185 293e
00000030: 4708 083f 6f4a 283e a9c0 e63d 3eee a73e
00000040: beb1 a53e 8405 0e3e e6ca 063c 737f 3a3e
00000050: 6f5f aa3e ed71 463e 2f50 f23d c7ec 483e
00000060: 002a a43d c136 3a3e d2ba 883e d7f2 843d
00000070: c408 873c cb38 813e e68c 783d 03f4 873e
00000080: 2b8c 9b3d de66 943d 5475 553e d563 863d
00000090: 11f8 383e acac 8a3e fc87 f33b cf65 393e
000000a0: 2d29 023e 12ea d93d e634 3a3e 8051 613e
000000b0: a2ac ac3e 5e05 f93d 4cd2 263e 10f7 8e3e
000000c0: 5cea 073d a023 9c3e 3f62 a03e 9172 6a3e
000000d0: f090 9d3e 0cf6 0c3e a33a 1a3e 5a45 313d
000000e0: 4085 ee3c c67d 5d3d 7060 343e e733 7e3d
000000f0: 3f71 8f3e 7cf5 833e 679b ae3d b613 53bb

weight f4 [32, 64]
0.09553692 -0.015821818 0.04073987 0.060194716 -0.09865969 0.11012431 -0.110696904 -0.044671934
-0.03689139 0.038304113 0.005224335 -0.13673913 -0.0963676 -0.117855646 -0.025081549 0.029751766
-0.04513547 0.06405509 0.013156404 -0.069730304 0.0879318 0.05586179 -0.029666211 -0.027928757
-0.040184855 -0.13655272 0.041020293 -0.14602062 -0.035758086 -0.065357104 -0.10697933 -0.02691925
-0.14351426 0.061933223 -0.017860806 0.07198452 0.025930079 0.07447896 0.061179504 -0.019087657
-0.12201764 -0.12857156 -0.014144389 -0.027350843 -0.05504867 -0.004340595 -0.1186345 0.08624508
-0.11052149 -0.14090857 0.04643463 -0.043489907 -0.12690692 0.048099183 -0.071652554 -0.1308629
-0.09613682 -0.027579673 0.020972729 -0.010261731 0.06791881 -0.102840446 -0.09149049 -0.05705738
-0.096268624 -0.123949766 0.08435391 0.009257317 0.06513575 -0.11024515 -0.0389878 -0.08748771
0.05081077 -0.09975883 -0.066415355 0.028300628 -0.06167145 -0.07919799 0.07410501 0.031005204
-0.032597706 0.042665914 0.11176266 -0.028250143 0.10726406 0.05127862 -0.058432937 0.08708295
-0.11309765 -0.102150664 0.0909002 -0.06269622 0.025491357 0.09563105 0.1084944 -0.07495141
-0.09164348 -0.022050679 -0.019596905 -0.11142531 0.076964974 -0.02498436 0.026401535 -0.017304242
-0.05950609 -0.006279379 0.105259344 -0.053055286 -0.039313883 0.025879234 0.11576405 -0.11878686
0.030369982 0.06894292 -0.04651715 -0.032343462 0.10916817 -3.6090612e-05 0.06725833 0.03222561
-0.058984518 -0.087227374 -0.0796258 0.103654385 -0.022681177 0.0769556 -0.032006934 0.034573033
0.13769759 0.2120836 0.14931585 0.05705726 0.082209595 0.010708998 0.17181955 0.11188025
0.14990829 0.186902 0.05416572 0.15487105 0.66462535 0.20886101 0.18105783 0.04824814
0.0062076272 0.20908353 0.13930804 0.00012462998 0.024936937 0.12890509 0.058068424 0.13345036
0.071324654 0.24127993 0.03440523 0.12802148 0.22316049 0.13911732 0.21898708 0.23003548
0.2151635 0.23310015 0.053796478 -0.0040658396 0.1855842 0.24208188 0.11174606 0.10321876
0.07521125 0.2303965 0.17478299 0.19804612 0.2212305 0.15430278 0.04243266 0.08807406
0.21196857 0.020438042 0.22355066 0.18784808 0.23668031 0.22817524 0.21278186 0.21539144
0.19207223 0.11735865 0.2309524 0.19405945 0.37056723 0.204881 0.16016796 0.15179932
0.013761954 0.039745726 0.23462118 0.21235391 0.12535998 -0.051308043 0.06790994 0.19407366
0.04770388 0.2266861 0.00016915755 0.17300066 0.6536189 0.2157227 0.008947415 0.092018776
0.21026903 0.1251435 0.15919149 0.22959226 0.15623167 0.23225965 0.16524789 0.1698572
0.008856215 0.21081607 0.13905962 0.06679334 0.08641436 0.066150226 0.10442042 0.26766026
0.0067112995 0.18243538 0.2243068 0.1600735 0.18166946 0.10984463 0.04462087 0.18904215
0.22679988 0.016880818 0.1250765 0.10882301 0.20791 0.17077273 0.23746575 0.07124771
0.081261784 0.036106266 0.18605293 0.15268482 0.15739322 0.11401015 0.11040917 0.005961343
0.1597444 0.17562081 0.121492594 0.113509536 0.47889483 0.22054797 0.24159208 0.014265923
00000000: dca8 c33d c29c 81bc dade 263d bc8e 763d
00000010: 170e cabd db88 e13d 0fb5 e2bd ebf9 36bd
00000020: 6d1b 17bd c6e4 1c3d e630 ab3b 5805 0cbe
00000030: 605c c5bd 4d5e f1bd d277 cdbc fab9 f33c
00000040: f8df 38bd 512f 833d f58d 573c c3ce 8ebd
00000050: 9615 b43d 55cf 643d 8e06 f3bc d9ca e4bc
00000060: e098 24bd 7ad4 0bbe e504 283d 6e86 15be
00000070: 1277 12bd f2d9 85bd fb17 dbbd c285 dcbc
00000080: 67f5 12be b1ad 7d3d d350 92bc 9f6c 933d
00000090: 516b d43c 6d88 983d 5c97 7a3d b85d 9cbc
000000a0: 62e4 f9bd 43a8 03be debd 67bc e00e e0bc
000000b0: b77a 61bd 8d3b 8ebb a5f6 f2bd 43a1 b03d
000000c0: 1759 e2bd 564a 10be 3d32 3e3d 7922 32bd
000000d0: e3f3 01be a603 453d 93be 92bd ed00 06be
000000e0: 62e3 c4bd c4ee e1bc 00cf ab3c d220 28bc
000000f0: 0419 8b3d 039e d2bd 5e5f bbbd 00b5 69bd
00000100: 7c28 c5bd 60d9 fdbd bec1 ac3d 00ac 173c
00000110: e465 853d 36c8 e1bd acb1 1fbd c22c b3bd
00000120: f41e 503d 5c4e ccbd c604 88bd b8d6 e73c
00000130: 349b 7cbd 8e32 a2bd 5ec4 973d a0fe fd3c
00000140: 2c85 05bd 74c2 2e3d d2e3 e43d d86c e7bc
00000150: 42ad db3d 8809 523d 6057 6fbd 8c58 b23d
00000160: be9f e7bd 5e34 d1bd e229 ba3d e066 80bd
00000170: 40d3 d03c 36da c33d 5032 de3d 2080 99bd
00000180: 94af bbbd a0a3 b4bc b089 a0bc f432 e4bd
00000190: d09f 9d3d 00ac ccbc 0848 d83c a0c1 8dbc
000001a0: a8bc 73bd 40c3 cdbb 3692 d73d 8050 59bd
000001b0: 9807 21bd b000 d43c b415 ed3d 8646 f3bd
000001c0: 78ca f83c f231 8d3d c488 3ebd 947a 04bd
000001d0: 9093 df3d 0060 17b8 bcbe 893d 00ff 033d
000001e0: c099 71bd 44a4 b2bd da12 a3bd c048 d43d
000001f0: e0cd b9bc e69a 9d3d b419 03bd 749c 0d3d
00000200: 9900 0d3e 712c 593e 41e6 183e e0b4 693d
00000210: 815d a83d cb74 2f3c 77f1 2f3e 7921 e53d
00000220: 8f81 193e 3d63 3f3e e0dc 5d3d 8496 1e3e
00000230: e324 2a3f a9df 553e 3967 393e d79f 453d
00000240: 5a69 cb3b fe19 563e c4a6 0e3e 1baf 0239
00000250: 8c48 cc3c b2ff 033e 28d9 6d3d 36a7 083e
00000260: a912 923d 1612 773e 80ec 0c3d 1018 033e
00000270: 2f84 643e c574 0e3e 263e 603e 6c8e 6b3e
00000280: d253 5c3e ceb1 6e3e b259 5c3d bc3a 85bb
00000290: c909 3e3e 50e4 773e 1edb e43d 5b64 d33d
000002a0: 5b08 9a3d 0fed 6b3e 50fa 323e 9acc 4a3e
000002b0: 408a 623e 8c01 1e3e decd 2d3d 2c60 b43d
000002c0: 4a0e 593e ae6d a73c 77ea 643e 3f5b 403e
000002d0: 535c 723e c5a6 693e 7de3 593e 938f 5c3e
000002e0: 95ae 443e bb59 f03d c97e 6c3e 85b7 463e
000002f0: fdba bd3e 53cc 513e 1203 243e 4871 1b3e
00000300: d279 613c 6acc 223d 8940 703e 4e73 593e
00000310: 5e5e 003e 6228 52bd 5e14 8b3d 3fbb 463e
00000320: 2565 433d 6720 683e e25f 3139 1627 313e
00000330: 9153 273f 69e6 5c3e 2e98 123c 5774 bc3d
00000340: c450 573e 9e25 003e 1803 233e 3c1a 6b3e
00000350: 32fb 1f3e 79d5 6d3e be36 293e 0cef 2d3e
00000360: a819 113c 2be0 573e a565 0e3e f2ca 883d
00000370: 03fa b03d c579 873d 60da d53d c40a 893e
00000380: 76ea db3b 57d0 3a3e afb0 653e 4fea 233e
00000390: 8f07 3a3e 39f6 e03d 60c4 363d 4494 413e
000003a0: 3a3e 683e a449 8a3c 0e14 003e 99de de3d
000003b0: 5ce6 543e 0cdf 2e3e 392a 733e 52ea 913d
000003c0: 946c a63d 2ae4 133d a984 3e3e 6959 1c3e
000003d0: b02b 213e 277e e93d 341e e23d 5f57 c33b
000003e0: 0994 233e f1d5 333e 1cd1 f83d b077 e83d
000003f0: b431 f53e 54d7 613e ea63 773e 9ebb 693c

bias f4 [32]
-0.0036926738 -0.0919911 0.07978205 0.07625073 0.07197543 0.0636829 0.19882089 0.23808664
0.07407372 -0.13006683 0.08809323 0.06099509 0.04697123 0.03712693 0.053136718 0.1818676
0.09742598 0.12697202 0.111587286 0.15119362 -0.050884206 0.23196347 0.12342777 0.15124944
-0.089960486 -0.02453619 0.21694978 -0.042205933 0.04180312 0.01545557 0.053656198 0.036807742
00000000: c900 72bb d465 bcbd c564 a33d 5829 9c3d
00000010: db67 933d 2e6c 823d b497 4b3e fccc 733e
00000020: f6b3 973d 3d30 05be 396a b43d fdd5 793d
00000030: e864 403d 6812 183d e3a5 593d 803b 3a3e
00000040: 4687 c73d f404 023e e087 e43d 80d2 1a3e
00000050: f56b 50bd d587 6d3e b3c7 fc3d 22e1 1a3e
00000060: 343d b8bd 1f00 c9bc 1528 5e3e 21e0 2cbd
00000070: c039 2b3d 5c39 7d3c 9ac6 5b3d b7c3 163d

weight f4 [1, 32]
-0.051591128 0.03675568 0.28862372 0.17085262 0.14903888 0.23280251 0.17703849 0.21923395
0.26934803 -0.114436775 -0.018244956 -0.09652897 0.2546038 -0.08931943 0.30806997 0.292772
-0.09020608 0.30590743 0.26858917 0.22735874 -0.07262357 0.24933507 0.27656442 0.24996693
-0.09529511 -0.047988947 0.17837907 -0.12628263 0.2910389 -0.13760178 -0.09373116 -0.05348395
00000000: 3851 53bd 208d 163d 7dc6 933e fdf3 2e3e
00000010: a69d 183e c863 6e3e 9449 353e dd7e 603e
00000020: fce7 893e d45d eabd 7276 95bc fbb0 c5bd
00000030: 6e5b 823e 1bed b6bd 59bb 9d3e 36e6 953e
00000040: f7bd b8bd e69f 9c3e 8584 893e bbd0 683e
00000050: abbb 94bd b151 7f3e da99 8d3e 55f7 7f3e
00000060: 152a c3bd 0f90 44bd 01a9 363e 3c50 01be
00000070: 0d03 953e 7be7 0cbe 1ff6 bfbd fd11 5bbd
