mlruns_old/993373217101926689/f3dc68f7211c4a588effaee815a4c958/artifacts/model/data/model.pth (torch, 558683 bytes, 19 tensors)

weight f4 [128, 14]
0	0x3d8549e4	0.06508234
1	0xbe8b19e5	-0.27168193
2	0x3e47cea7	0.19512425
3	0x3e45e9cc	0.19327468
4	0x3f10e00c	0.5659187
5	0x3ea5862d	0.3232893
6	0x3ea378ed	0.31928197
7	0xbf26b185	-0.65114623
8	0x3f2d62b7	0.6772875
9	0x3e797ff2	0.24365214
10	0xbec4b12a	-0.38416415
11	0x3ebdb3aa	0.37051135
12	0xbebcdb96	-0.3688628
13	0xbf365eda	-0.7123848
14	0xbeab2140	-0.33423805
15	0xbf81b438	-1.0133123
16	0x3eef2388	0.46706796
17	0xbe868c02	-0.26278692
18	0x3edb4a0e	0.42829937
19	0xbd6f93c7	-0.05849054
20	0xbf443be7	-0.76653904
21	0x3e4d5306	0.20051202
22	0xbe1bee81	-0.15227701
23	0xbd409de6	-0.047025584
24	0x3db03191	0.08603204
25	0xbe937679	-0.28801325
26	0x3ee4c8e6	0.44684523
27	0x3dd98022	0.106201425
28	0x3c27aaf0	0.010233626
29	0xbe03deb7	-0.12877928
30	0x3ed1bc2e	0.40963882
31	0xbfa8d3c8	-1.318963
32	0x3ed84ffe	0.4224853
33	0xbeb923d3	-0.36160144
34	0x3e3f282f	0.18667673
35	0xbf169ca4	-0.58832765
36	0x3f0fd9a8	0.5619149
37	0xbd80a58e	-0.06281577
38	0xbdb55fbc	-0.088561505
39	0x3d04bc02	0.03240586
40	0x3e534288	0.20630848
41	0x3e246afc	0.16056436
42	0x3dd5bd46	0.10436492
43	0xbd0ef90e	-0.034905486
44	0xbe8f41df	-0.27979943
45	0x3e8ccbf9	0.2749937
46	0x3dfdbee7	0.12389927
47	0xbc872c49	-0.016500609
48	0xbdfcd568	-0.123453915
49	0xbf68a9a0	-0.9088383
50	0xbe0b5844	-0.1360789
51	0x3dcdf640	0.10056734
52	0x3f09f984	0.53896356
53	0x3d472dda	0.04862771
54	0x3ddab2b2	0.10678615
55	0x3ecba7a5	0.3977634
56	0x3f36a0ee	0.7133931
57	0xbe736bf3	-0.23771648
58	0xbf0a3c54	-0.53998303
59	0x3ef997af	0.48748538
60	0xbe841b75	-0.25802198
61	0xbe6d4e7d	-0.23174472
62	0x3f4a6696	0.79062784
63	0x3dd82ff2	0.1055602
64	0xbea57adf	-0.32320306
65	0x3d3ae31c	0.045626745
66	0xbf0de89c	-0.5543306
67	0xbe2993c1	-0.1656027
68	0x3e9259b5	0.28584066
69	0x3e2fcc4e	0.1716778
70	0xbedc19df	-0.42988488
71	0xbeabe2f3	-0.33571586
72	0x3e56da2f	0.20981668
73	0x3b46d8aa	0.0030341544
74	0x3e4bc0a4	0.19897705
75	0xbdae9b89	-0.0852576
76	0x3e5316c4	0.20614153
77	0xbf0b1ddc	-0.54342437
78	0x3ccbdbc0	0.024885058
79	0x3e83480c	0.25640905
80	0xbea952ad	-0.3307089
81	0xbed54fa3	-0.4166232
82	0x3ea5d4ec	0.3238901
83	0x3dc27bc9	0.094962664
84	0x3e2841b9	0.16431321
85	0xbe081d09	-0.13292326
86	0x3f1fddc6	0.62447774
87	0xbf3791c1	-0.7170678
88	0xbd843235	-0.06454889
89	0x3de9183c	0.113815755
90	0xbd712b47	-0.058879163
91	0x3c61d6c3	0.013784113
92	0x3e802a85	0.2503244
93	0xbe9f4196	-0.31104726
94	0x3db8ecc9	0.09029538
95	0x3d007e45	0.03137042
96	0xbf0b1082	-0.54322064
97	0xbe828212	-0.2548986
98	0x3e119d9e	0.14220282
99	0xbedfc260	-0.43702984
100	0x3ea205df	0.31645104
101	0x3ee56fde	0.4481191
102	0x3f189945	0.5960887
103	0x3e8bfa1e	0.27339262
104	0x3f2ba8dd	0.6705454
105	0xbec997a4	-0.39373505
106	0xbecf612f	-0.40503833
107	0x3f1bafc3	0.60815066
108	0xbd85e97f	-0.065386765
109	0x3e1036ba	0.14083377
110	0x3e9a5dcd	0.3014969
111	0x3f012834	0.5045197
112	0x3e51e231	0.20496441
113	0xbcd4aec7	-0.025962247
114	0x3f315e5b	0.692846
115	0x3e07e9f0	0.13272834
116	0x3eb846c4	0.3599149
117	0xbda4d9f7	-0.08049386
118	0x3f4b8da8	0.79513025
119	0x3ef06d7a	0.46958524
120	0x3e4e9f1f	0.20177887
121	0x3f3a0e1b	0.72677773
122	0xbe976c3f	-0.29574773
123	0x3e808d07	0.25107595
124	0x3e226277	0.15857874
125	0xbed6916a	-0.41907817
126	0x3ddd4f34	0.108061224
127	0x3d255a69	0.040369425
128	0x3eb8facc	0.36128843
129	0xbe6f385b	-0.23361342
130	0xbe46605b	-0.19372694
131	0xbcbff20f	-0.023430852
132	0xbe1e2c68	-0.15446627
133	0xbeaa057a	-0.33207303
134	0xbe697b5d	-0.22800966
135	0xbe57f9e0	-0.21091413
136	0x3dc9f936	0.09861986
137	0xbe5bf1a6	-0.214789
138	0xbcfd09ea	-0.030888516
139	0xbe202aaa	-0.15641275
140	0x3f11c966	0.56947935
141	0xbe9d7e5b	-0.30760464
142	0xbe587dfe	-0.21141812
143	0xbe6f988e	-0.23398039
144	0x3da38f4a	0.079863146
145	0xbe8a901a	-0.27063066
146	0xbecb19a0	-0.39667988
147	0x3e42d6db	0.19027273
148	0xbec80723	-0.39067945
149	0xbf2d2292	-0.67630875
150	0x3e2b1576	0.16707405
151	0x3efccdce	0.49375767
152	0xbe9334bb	-0.28751168
153	0xbe7102f6	-0.23536286
154	0xbdb347a3	-0.08753898
155	0x3d5c71c5	0.053819437
156	0x3ef49ec2	0.47777373
157	0x3e933db2	0.28758007
158	0xbf2d31ce	-0.6765412
159	0x3f120974	0.57045674
160	0xbec76d58	-0.3895061
161	0x3e7f9ac4	0.24961382
162	0x3ec52fee	0.3851313
163	0xbf53152a	-0.8245417
164	0xbe644399	-0.22291411
165	0xbeae5a8d	-0.3405346
166	0x3ede9b3a	0.43477803
167	0xbf16d600	-0.5892029
168	0xbee4102b	-0.44543585
169	0xbe53ee6e	-0.20696422
170	0xbddabd9c	-0.10680696
171	0xbe6a9c37	-0.22911154
172	0xbd657b17	-0.05602559
173	0xbbb632f6	-0.0055602742
174	0xbebd3b10	-0.36959124
175	0xbc70d7eb	-0.014699916
176	0xbea7d519	-0.32779768
177	0xbdca4cf5	-0.0987796
178	0x3f0e86cd	0.5567444
179	0x3dd8b458	0.10581273
180	0x3f5a0039	0.8515659
181	0xbe105653	-0.1409543
182	0xbd6211ca	-0.055192746
183	0x3e5e8365	0.2172981
184	0x3ebb3292	0.3656202
185	0xbdcfe17e	-0.10150431
186	0xbe8a1508	-0.2696917
187	0xbe6404ab	-0.22267406
188	0xbe9df0d9	-0.30847815
189	0x3f4ad32b	0.79228467
190	0x3f0dceb7	0.55393547
191	0x3e5ebc54	0.21751529
192	0x3ee8d64e	0.45476002
193	0x3d94e70a	0.0727063
194	0x3e685973	0.22690372
195	0x3c5aab3e	0.013346491
196	0xbe686e2e	-0.2269828
197	0x3db8ead9	0.09029169
198	0x3f5dfb49	0.86711556
199	0xbe82ff62	-0.25585467
200	0xbee132e6	-0.43984145
201	0x3e14e05d	0.14538713
202	0xbe7b1faa	-0.24523798
203	0xbe7af1d6	-0.24506316
204	0xbeceb23f	-0.40370366
205	0x3db4900e	0.08816539
206	0x3e962497	0.2932479
207	0x3dd9c617	0.10633486
208	0x3e1084dd	0.14113183
209	0xbdd57028	-0.10421783
210	0x3e46a4ac	0.19398755
211	0xbe090f6b	-0.13384788
212	0x3e64c91f	0.22342347
213	0xbeb0fe32	-0.34568936
214	0x3f1918c7	0.5980343
215	0x3ea5432e	0.32277817
216	0x3f37504c	0.716069
217	0xbf6253a1	-0.8840886
218	0xbf870880	-1.0549469
219	0x3d93fc3b	0.072258435
220	0x3e77ce89	0.2419988
221	0x3cfeb3d5	0.03109161
222	0xbe4af221	-0.19818927
223	0xbe7709c1	-0.24124815
224	0xbf24ac89	-0.6432577
225	0xbda164a2	-0.07880522
226	0xbdc62355	-0.09674708
227	0x3e2884f4	0.16456968
228	0x3d4f1509	0.05055717
229	0xbdad9bfa	-0.08477016
230	0x3e017c0a	0.12644973
231	0xbde2d363	-0.11075475
232	0x3e806e69	0.25084236
233	0x3eddda50	0.43330622
234	0xbdc5e1b0	-0.09662187
235	0x3d8a1b34	0.0674347
236	0x3f38450e	0.7198037
237	0x3eaec09e	0.3413133
238	0x3dec5bc3	0.1154094
239	0xbea6d460	-0.32583904
240	0x3de69aba	0.112599805
241	0xbe63daf7	-0.22251497
242	0x3f160965	0.58608085
243	0xbd6ed6e4	-0.058310404
244	0x3ed850f4	0.42249262
245	0xbe2170f3	-0.15765743
246	0xbf03871d	-0.5137804
247	0xbf1d210a	-0.6137854
248	0xbea05a5f	-0.31318948
249	0x3da5e6c6	0.08100657
250	0x3eaee15a	0.34156305
251	0x3ca74bec	0.020421945
252	0xbd86ad94	-0.06576076
253	0xbdc48b3a	-0.09596868
254	0x3dea32dc	0.11435482
255	0xbe0c2910	-0.13687539

bias f4 [128]
0	0x393e08ba	0.00018123063
1	0xba5d9699	-0.0008452922
2	0x397604ae	0.00023462132
3	0x39f5e8eb	0.0004690358
4	0x392d95c9	0.00016554365
5	0x3a17a8b6	0.0005785333
6	0xbb3dcaee	-0.0028960067
7	0x3a8ec901	0.0010893644
8	0x3a02d502	0.0004990847
9	0xbaff44e3	-0.0019475486
10	0x3a2f7102	0.00066925597
11	0xb939c032	-0.00017714573
12	0x39ad0d87	0.0003300721
13	0x3899a8b0	7.327029e-05
14	0xb94ebf5c	-0.00019716978
15	0x37823e43	1.55262e-05
16	0xbac5ee5e	-0.0015100946
17	0xb94c87e1	-0.00019505575
18	0x3a92b460	0.0011192672
19	0xb9058961	-0.00012735046
20	0x3a32c18c	0.0006819002
21	0xb7e38a11	-2.71248e-05
22	0xba333713	-0.0006836515
23	0xb95811ef	-0.00020606046
24	0xbad1da5e	-0.0016010513
25	0x3a2c6014	0.0006575596
26	0xba12af3c	-0.000559557
27	0x399e2673	0.00030164755
28	0x3890014d	6.8666974e-05
29	0xb8644e26	-5.4432217e-05
30	0x39a8ac92	0.00032172032
31	0xba845e1b	-0.0010098846
32	0x39bc0df5	0.00035868553
33	0xb9cae932	-0.00038702186
34	0x3a9a682a	0.0011780311
35	0xb95bc6bd	-0.00020959503
36	0x3830d8e0	4.216365e-05
37	0xba4a1281	-0.0007708446
38	0xb88a12b5	-6.583837e-05
39	0x387b5623	5.9923284e-05
40	0x3a76d211	0.00094154576
41	0x3838a464	4.402212e-05
42	0xba5a5694	-0.0008328941
43	0xb88f2640	-6.825896e-05
44	0x3963b44c	0.00021715573
45	0x39a465ef	0.00031356464
46	0x380c5743	3.345987e-05
47	0x3a0c743c	0.00053578964
48	0x3960aa56	0.0002142576
49	0x39b71ee9	0.0003492751
50	0x399c2f79	0.0002979001
51	0xba4d35df	-0.0007828157
52	0xb93942c9	-0.00017667854
53	0xba0a81c8	-0.0005283621
54	0x3a08f04a	0.0005223794
55	0xb9c96b92	-0.00038417854
56	0x3a31f23b	0.00067881093
57	0x3a9c0bc7	0.0011905365
58	0x39bca99d	0.00035984526
59	0x3a87eab1	0.0010369626
60	0x3a75b3a8	0.0009372779
61	0x39572b70	0.0002052018
62	0x3a24eb7f	0.0006291195
63	0x390558df	0.00012716975
64	0xbad2fa19	-0.0016096263
65	0x3aca14f3	0.001541762
66	0xb9342f02	-0.0001718365
67	0x3a15f8ce	0.0005720974
68	0xb9993256	-0.00029219937
69	0xb69f3c93	-4.745621e-06
70	0xb9c8d92c	-0.00038308778
71	0xba0a8b11	-0.0005285005
72	0xb9b07198	-0.0003365397
73	0x39ddc3d8	0.0004229832
74	0xb86f685a	-5.7079225e-05
75	0x3b30d9ea	0.0026985356
76	0xba258ce1	-0.0006315243
77	0x39c261c1	0.00037075396
78	0x39a46cfb	0.00031361714
79	0x391172e9	0.00013871085
80	0x3913eaa1	0.00014106419
81	0x3a241cdb	0.00062604033
82	0x39b48262	0.00034429418
83	0x3ac6c0e8	0.0015163692
84	0x39f0867b	0.00045876563
85	0x39def9e7	0.0004252933
86	0x3a27ade6	0.00063964573
87	0xb92a4955	-0.00016239782
88	0xb98640d2	-0.00025606767
89	0x38fd10ac	0.000120670855
90	0xb90d01d7	-0.00013447493
91	0xb769ffc3	-1.3947431e-05
92	0x38a1e045	7.718852e-05
93	0x3946f7c6	0.00018975054
94	0xb99e18e8	-0.00030154665
95	0x37f3baf9	2.9054923e-05
96	0x39c09f48	0.00036739768
97	0x39fa15d0	0.00047699967
98	0x3a88deda	0.0010442392
99	0xb84a440b	-4.8223923e-05
100	0x3ab57303	0.001384348
101	0x3a85b6a9	0.0010201532
102	0x39d77e82	0.0004110225
103	0x39938fd2	0.0002814518
104	0x3a6a151e	0.00089295383
105	0xb889c586	-6.569461e-05
106	0x3a7726fa	0.000942811
107	0xba67b660	-0.00088391267
108	0xba757794	-0.0009363827
109	0xba24fe04	-0.0006293955
110	0xba8b9cfe	-0.0010651646
111	0xba68fd2e	-0.00088878244
112	0x39731711	0.00023182879
113	0x3a6b90f8	0.00089861406
114	0x3a044267	0.0005045295
115	0xb8f382f8	-0.00011611538
116	0x3a3765e3	0.00069960783
117	0xb7aac63e	-2.0357893e-05
118	0xb97719d9	-0.00023565385
119	0x398049bc	0.00024469
120	0x3a8e4f3f	0.0010857357
121	0x39cbf3c4	0.00038900797
122	0xb9d65a41	-0.00040884505
123	0x3ae4feed	0.0017470993
124	0xb9811249	-0.0002461842
125	0x39dd4964	0.00042207085
126	0x399230aa	0.00027883548
127	0x39e4de65	0.00043653246

weight f4 [128]
0	0x3f6db7db	0.92858666
1	0x3f545f72	0.8295814
2	0x3f6f8a78	0.9357066
3	0x3f85d13c	1.0454478
4	0x3f755909	0.9583898
5	0x3f8009f9	1.0003043
6	0x3f8fd1de	1.1235921
7	0x3f836ffb	1.0268549
8	0x3f83c3ba	1.0294106
9	0x3f8edf52	1.1161902
10	0x3f80ae91	1.0053273
11	0x3f871a87	1.055497
12	0x3f7b19a5	0.98086005
13	0x3f7b4f08	0.9816747
14	0x3f8ec5a2	1.1154063
15	0x3f81868f	1.0119189
16	0x3f845d99	1.0341064
17	0x3f81bc1b	1.013553
18	0x3f6b8bda	0.9201027
19	0x3f7e2a91	0.992837
20	0x3f858d9e	1.0433843
21	0x3f775f8d	0.96630174
22	0x3f5d742d	0.86505395
23	0x3f71cf29	0.94456726
24	0x3f74d39f	0.9563541
25	0x3f99272b	1.1965078
26	0x3f7443de	0.9541606
27	0x3f78b262	0.9714719
28	0x3f820a9b	1.0159487
29	0x3f80d52e	1.0065057
30	0x3f901350	1.1255894
31	0x3f76423b	0.9619481
32	0x3f91b0a4	1.1382031
33	0x3f8265b0	1.0187283
34	0x3f64bcb6	0.8935045
35	0x3f887add	1.0662495
36	0x3f64a32e	0.8931149
37	0x3f7b043c	0.98053336
38	0x3f80955b	1.004558
39	0x3f839be2	1.0281947
40	0x3f6cf0f7	0.92555183
41	0x3f641c1e	0.89105403
42	0x3f897eb1	1.0741788
43	0x3f650c1e	0.89471614
44	0x3f779024	0.96704316
45	0x3f7233b5	0.9461015
46	0x3f6ab126	0.9167656
47	0x3f7f9229	0.998324
48	0x3f7c70be	0.9860953
49	0x3f6d53d9	0.92706066
50	0x3f823d97	1.0175046
51	0x3f7eda33	0.99551696
52	0x3f810d83	1.0082248
53	0x3f91c24c	1.138742
54	0x3f6c4519	0.92292935
55	0x3f797c9d	0.9745577
56	0x3f862329	1.047948
57	0x3f816ec0	1.0111923
58	0x3f7c0ca9	0.9845682
59	0x3f7d5527	0.9895806
60	0x3f96e0f0	1.1787395
61	0x3f844206	1.0332649
62	0x3f74dd32	0.9565002
63	0x3f7ebacb	0.99503773
64	0x3f7bed59	0.9840904
65	0x3f9336db	1.1501116
66	0x3f7ddf1b	0.99168557
67	0x3f654af5	0.895675
68	0x3f838209	1.0274059
69	0x3f66f0ec	0.9021137
70	0x3f7ec97b	0.99526185
71	0x3f8f041c	1.1173129
72	0x3f850498	1.0392027
73	0x3f8e0bfc	1.1097407
74	0x3f7f386c	0.9969547
75	0x3f83e15b	1.0303148
76	0x3f8c5567	1.0963563
77	0x3f82c0ee	1.0215127
78	0x3f695d6d	0.9115818
79	0x3f6f0ad2	0.93375885
80	0x3f81d6c4	1.0143666
81	0x3f813954	1.009562
82	0x3f620572	0.8828956
83	0x3f80acb9	1.0052711
84	0x3f8296f4	1.0202317
85	0x3f8fddf4	1.123961
86	0x3f8308db	1.0237077
87	0x3f7a00ef	0.97657675
88	0x3f8391e7	1.0278901
89	0x3f7fb29a	0.998819
90	0x3f7fb087	0.99878734
91	0x3f6b5a92	0.91935074
92	0x3f7df945	0.9920848
93	0x3f8422a7	1.0323075
94	0x3f73cb0b	0.95231694
95	0x3f8c6b2b	1.0970205
96	0x3f78bd45	0.971638
97	0x3f7e7214	0.9939282
98	0x3f721856	0.94568384
99	0x3f82c654	1.0216775
100	0x3f6fe2af	0.93705267
101	0x3f66ed2e	0.9020566
102	0x3f699067	0.91235965
103	0x3f86cec2	1.0531847
104	0x3f87890b	1.0588697
105	0x3f87fc51	1.0623876
106	0x3f7713d2	0.9651462
107	0x3f813c7d	1.0096585
108	0x3f866e21	1.0502359
109	0x3f82de46	1.0224082
110	0x3f7a7476	0.97833955
111	0x3f7276d0	0.94712543
112	0x3f7024b1	0.93805987
113	0x3f711730	0.94176006
114	0x3f763378	0.96172285
115	0x3f83d049	1.0297939
116	0x3f75ebf0	0.9606314
117	0x3f75c908	0.96009874
118	0x3f822dba	1.0170205
119	0x3f843837	1.0329655
120	0x3f7dda60	0.9916134
121	0x3f81576c	1.0104804
122	0x3f85e702	1.0461123
123	0x3f783a77	0.9696421
124	0x3f780d1e	0.96895015
125	0x3f803358	1.0015669
126	0x3f820a22	1.0159342
127	0x3f798d85	0.97481567

bias f4 [128]
0	0x3d47625f	0.0486778
1	0xbcb7dea6	-0.022445034
2	0xbd5102fe	-0.051028244
3	0xbd39565a	-0.045248367
4	0x3d69a88d	0.05704551
5	0x3d877dd4	0.06615797
6	0x3bea341f	0.0071473266
7	0x3d6fc69e	0.058539025
8	0x3e4e84c1	0.20167829
9	0x3c9d3050	0.019188076
10	0xbdfd9dc5	-0.12383608
11	0xbca126f1	-0.019671889
12	0xbd81ae55	-0.06332079
13	0x3cdafb22	0.026731078
14	0xbd7329f3	-0.059366178
15	0x393cc1fb	0.0001800134
16	0x3e2057ad	0.15658446
17	0xbd66c9c2	-0.056344755
18	0x3d40b113	0.04704387
19	0xbcd354cc	-0.02579727
20	0x3e26c556	0.16286215
21	0xbd43d6d7	-0.04781231
22	0xbd8d782f	-0.06907689
23	0x3d99130f	0.07474338
24	0x3d2de40c	0.04245381
25	0xbe0e384a	-0.1388866
26	0x3c972cc8	0.01845397
27	0xbd8a7561	-0.067606695
28	0x3ceab215	0.02864937
29	0x3d8f798e	0.070056066
30	0x3c14b554	0.009076435
31	0xbccdef1c	-0.02513843
32	0x3cafd4cd	0.021463776
33	0x3dc60139	0.09668202
34	0xbd86e6c9	-0.065869875
35	0xbd3acd1b	-0.04560576
36	0xbd6b17c6	-0.05739572
37	0x3dcece54	0.10097948
38	0x3c73159b	0.014836694
39	0xbcf11c0f	-0.029432325
40	0xbd384f1b	-0.044997316
41	0xbccdc6b7	-0.025119169
42	0x3cf51f27	0.029922081
43	0x3b2d124c	0.002640861
44	0x3dea05f5	0.114269175
45	0xbd205e72	-0.03915257
46	0xbb8d2fae	-0.0043086624
47	0x3e04f5c4	0.12984377
48	0x3ce01061	0.02735156
49	0x3d16ffd2	0.036865063
50	0x3cf3e8bc	0.029774062
51	0x3d3e0ebc	0.04640077
52	0xbc2f425c	-0.010696974
53	0x3dcdbe41	0.10046054
54	0xbd848491	-0.064705975
55	0x3da63cca	0.08117063
56	0xbd68993f	-0.056786772
57	0x3c8fa885	0.017536411
58	0xbd568ada	-0.052378513
59	0xbc95124d	-0.018197203
60	0xbde58795	-0.11207501
61	0x3cfbfd4b	0.030760428
62	0xbdb33648	-0.08750588
63	0xbce93a2d	-0.028470123
64	0xbdc44971	-0.0958432
65	0x3e1dc693	0.15407781
66	0x3d037572	0.032094426
67	0xbd0d4f79	-0.03449962
68	0xbe0030e2	-0.12518647
69	0xbd37a48a	-0.04483465
70	0xbdddc60f	-0.10828792
71	0xbd2e14a1	-0.042500142
72	0xbcb5133f	-0.022103904
73	0xbd74c38e	-0.059756808
74	0xbdb9cd28	-0.090723336
75	0x3dc16861	0.09443737
76	0x3dc8bfb7	0.09802192
77	0xbdcb5bc6	-0.09929614
78	0xbdaf6279	-0.08563704
79	0x3d0aba6a	0.033869185
80	0x3d0968ee	0.033547334
81	0xbd9f003d	-0.07763717
82	0xbcffc169	-0.031220155
83	0x3d4d6939	0.050149176
84	0xbdbf91a7	-0.09353953
85	0xbd6eb146	-0.05827453
86	0x3de0ccd0	0.10976565
87	0x3dda7b2b	0.10668024
88	0xbd8b6097	-0.068055324
89	0x3cd807f1	0.026370974
90	0x3d3fc23d	0.0468161
91	0xbd27dbed	-0.040981222
92	0x3d0fe575	0.035130937
93	0x3e114d5c	0.14189667
94	0x3d0f6ae5	0.035014052
95	0x3e303705	0.17208488
96	0xbd2769a7	-0.040872242
97	0x3ca1f52d	0.01977023
98	0x3baa9837	0.0052061337
99	0x3da60a94	0.08107486
100	0x3d865efd	0.06561086
101	0x3cb83c4b	0.022489687
102	0xbd88e8eb	-0.066850506
103	0x3ddbf211	0.1073953
104	0xbc6e0ef1	-0.0145299295
105	0xbdc5b3f8	-0.09653467
106	0x3df91c55	0.12163607
107	0x3dbab599	0.09116668
108	0x3ce34369	0.027742105
109	0x3d4b6412	0.04965598
110	0xbb10c26e	-0.0022088545
111	0x3d05de48	0.032682687
112	0xbd4c5c2c	-0.04989259
113	0x3e0d718f	0.1381285
114	0x3c9ae479	0.018907772
115	0xbdfb2053	-0.12262025
116	0x3dc92d8a	0.09823139
117	0x3d6c0bbe	0.057628386
118	0x3df729c5	0.12068514
119	0xbd96aee2	-0.07357575
120	0x3de6cd5a	0.112696365
121	0xbdbaebcf	-0.09127008
122	0x3d563daa	0.0523049
123	0xbd78908d	-0.06068473
124	0xbd59c068	-0.05316201
125	0xbcee158b	-0.029063007
126	0xbd1d090b	-0.038338702
127	0xbdd7f7bb	-0.10545298

running_mean f4 [128]
0	0xbebd3744	-0.36956227
1	0xbed227ba	-0.41045934
2	0x3ddb2f65	0.10702399
3	0x3e8f634b	0.28005442
4	0xbed1ee9f	-0.41002366
5	0xbec93cbe	-0.39304155
6	0x3df4f778	0.119612634
7	0x3df7b396	0.120948
8	0x3d98898c	0.0744811
9	0x3d958ae1	0.0730188
10	0xbc296062	-0.010337921
11	0xbe6f3157	-0.23358665
12	0xbc0476b4	-0.008084942
13	0x3eea14e5	0.45719066
14	0x3eda9128	0.4268887
15	0x3d18915f	0.03724801
16	0xbd7b37ce	-0.061332516
17	0xbe574c4d	-0.210252
18	0x3df6844a	0.12036951
19	0xbe8d1717	-0.2755668
20	0xbe7d85e0	-0.247581
21	0xbe8f9524	-0.28043473
22	0x3f493c00	0.7860718
23	0xbd89c2e2	-0.06726624
24	0xbd7e73bf	-0.062122103
25	0x3f070818	0.52746725
26	0x3ef770ff	0.48328397
27	0xbe232671	-0.15932633
28	0x3e8d1ddc	0.27561843
29	0xbe56ecdd	-0.20988794
30	0xbe4505f5	-0.19240554
31	0xbea208a0	-0.31647205
32	0x3e31770a	0.17330566
33	0xbebb3ee7	-0.36571428
34	0xbd926e05	-0.07149891
35	0x3e1feb46	0.15617093
36	0x3e42ea95	0.19034798
37	0xbe7d0a42	-0.24710944
38	0xbefe8bde	-0.49716085
39	0xbd8bbfc3	-0.06823685
40	0x3e1808d5	0.14847119
41	0xbe2ddc3c	-0.16978544
42	0xbd9d239d	-0.07672808
43	0x3e598d5b	0.21245329
44	0xbe926266	-0.28590697
45	0x3e5a8c42	0.21342567
46	0x3e3f9cc0	0.18712139
47	0x3e181770	0.1485269
48	0xbf33429a	-0.700235
49	0x3e7cf245	0.24701793
50	0xbeaa7c9f	-0.33298203
51	0x3eb4d855	0.35321298
52	0xbdc25892	-0.0948955
53	0xbe56a42d	-0.20961066
54	0x3d5980f9	0.053101514
55	0x3e524ab0	0.20536304
56	0xbdd07156	-0.10177867
57	0xbeaa344c	-0.33243024
58	0x3ee6e3e8	0.45095754
59	0x3e8f82a4	0.28029358
60	0xbd25f416	-0.04051598
61	0xbe578a96	-0.2104896
62	0xbe514b7e	-0.20438954
63	0xbedef83a	-0.43548757
64	0xbdc19cbd	-0.094537236
65	0xbeb061c4	-0.3444959
66	0xbedac573	-0.42728767
67	0x3d9e84de	0.07740186
68	0x3cffa5ba	0.031206954
69	0xbf250bd6	-0.64471185
70	0x3deb04a8	0.114754975
71	0x3f08e282	0.53470623
72	0xbe0eed9b	-0.13957827
73	0x3cf2ff86	0.029662859
74	0x3e8eb55a	0.27872735
75	0xbbc6457f	-0.006050765
76	0xbd332e89	-0.04374555
77	0x3de3b2bb	0.111180745
78	0xbc843376	-0.01613782
79	0x3eae8198	0.34083247
80	0x3f492305	0.7856906
81	0xbda57db4	-0.080806166
82	0x3e9c1670	0.30485868
83	0xbe47183b	-0.19442837
84	0x3db62972	0.08894624
85	0x3e2cd72f	0.16878961
86	0xbd4b4cb6	-0.049633704
87	0xbe57d78c	-0.21078318
88	0xbe9feca2	-0.31235224
89	0x3e1c0aa0	0.15238428
90	0xbe9da582	-0.30790335
91	0x3e1cd269	0.1531464
92	0x3e1c07ac	0.15237302
93	0x3ed77b71	0.42086366
94	0x3f17ccb0	0.59296703
95	0x3eadcc1c	0.33944786
96	0x3d3ff02f	0.046859916
97	0x3dc992db	0.098424636
98	0xbe16bfb1	-0.14721562
99	0x3eb4facd	0.35347596
100	0x3cfb978a	0.030711908
101	0x3f681daf	0.90670294
102	0xbeaddd51	-0.33957914
103	0xbe56ae3c	-0.20964903
104	0x3eac7049	0.33679417
105	0x3d2b97ed	0.041892935
106	0x3e2153b7	0.15754591
107	0xbe524a52	-0.20536163
108	0xbbd16b48	-0.0063909627
109	0x3df5d14f	0.12002813
110	0xbdfe14d2	-0.12406315
111	0x3e96c461	0.294467
112	0x3efba40d	0.49148598
113	0x3ef00c76	0.46884507
114	0x3e0dee31	0.13860394
115	0xbd4f9bb5	-0.050685603
116	0xbed4d233	-0.4156662
117	0xbdc390ee	-0.095491275
118	0xbee79cb6	-0.45236748
119	0x3e3fcb2d	0.18729849
120	0x3a9b59dd	0.0011852343
121	0xbeb4bbe5	-0.35299602
122	0x3e517498	0.20454633
123	0xbd8c19a0	-0.06840825
124	0x3e85fa1a	0.26167375
125	0xbe0c4390	-0.13697648
126	0x3dd6cdca	0.1048847
127	0x3d878f5f	0.06619143

running_var f4 [128]
0	0x3f8dc187	1.1074685
1	0x3f04096e	0.5157689
2	0x3f5a8549	0.85359627
3	0x3f79b19d	0.9753664
4	0x3f510eb9	0.8166309
5	0x3e6ba64f	0.2301266
6	0x3f4f1f92	0.8090755
7	0x3fff5718	1.9948454
8	0x4051c2b0	3.2775078
9	0x3f832491	1.0245534
10	0x3f8ba0fc	1.0908504
11	0x3f7f84a8	0.9981179
12	0x3f1111a2	0.5666753
13	0x401ca21c	2.4473944
14	0x3fbf86b7	1.4962987
15	0x408bb2f8	4.365597
16	0x3edeea90	0.43538332
17	0x3ffab918	1.9587736
18	0x3e5d90b6	0.21637234
19	0x3fce1afc	1.6101985
20	0x400359a7	2.052347
21	0x3f5fa011	0.87353617
22	0x3f34ddf4	0.70651174
23	0x3f8299f5	1.0203234
24	0x3e4357b8	0.19076431
25	0x4031ecaf	2.780071
26	0x3fa48a89	1.2854778
27	0x3f3250c7	0.69654506
28	0x3fa78835	1.3088442
29	0x3f1a8db8	0.60372496
30	0x402ccc64	2.699975
31	0x3ed36e0b	0.41294894
32	0x4026cf4f	2.606403
33	0x3f837265	1.0269285
34	0x3ed1257d	0.40848914
35	0x3f2d7dd4	0.67770123
36	0x3fe31131	1.7739621
37	0x3f84644f	1.0343112
38	0x3fac66b2	1.346884
39	0x3ffcdeb8	1.9755468
40	0x3ee9b69f	0.4564714
41	0x3f0e26e4	0.5552809
42	0x4050ff77	3.2655923
43	0x3f0afa69	0.54288346
44	0x3f67427c	0.9033582
45	0x3e980372	0.2969013
46	0x3f22be62	0.6357175
47	0x3fbfface	1.4998415
48	0x3ff5920d	1.9185196
49	0x3f95f6b1	1.1715909
50	0x401fbae1	2.4957812
51	0x3f4718a7	0.7777199
52	0x404d33ca	3.206286
53	0x3fb40079	1.4062644
54	0x3ed6e5da	0.41972238
55	0x3f224682	0.63388836
56	0x3f1b86b8	0.6075244
57	0x3ef51a58	0.4787166
58	0x3f81930d	1.0123001
59	0x3f13c17f	0.57717127
60	0x405d4bd2	3.4577527
61	0x3f5ab783	0.85436267
62	0x3f5c5e2a	0.8608118
63	0x3fdcc636	1.7247989
64	0x3f18cc5a	0.59686816
65	0x3f52573f	0.82164377
66	0x402f92e1	2.7433398
67	0x3ead957c	0.3390311
68	0x403e93bd	2.9777672
69	0x3f764ff1	0.9621573
70	0x3f9c02dd	1.2188374
71	0x3fb045ea	1.3771336
72	0x3fb74a25	1.4319502
73	0x3fca09b9	1.5784217
74	0x3fc3d6fd	1.5299984
75	0x3e9f13f8	0.31069922
76	0x3f924a5d	1.1428944
77	0x400ecb31	2.2311518
78	0x40068c82	2.102326
79	0x401b00e0	2.4219284
80	0x403a2685	2.908601
81	0x3fd47fa9	1.6601459
82	0x3f3ac14d	0.72951204
83	0x3f82a2f6	1.0205982
84	0x4007071a	2.1098084
85	0x3f926185	1.1436011
86	0x3fb0f313	1.382418
87	0x3fb4558b	1.4088606
88	0x400a4abd	2.1608117
89	0x3f4c3671	0.7977057
90	0x3f936bec	1.151731
91	0x3e6e32a9	0.23261513
92	0x3f745bb5	0.95452434
93	0x406e7999	3.7261717
94	0x3fe6282f	1.7981013
95	0x4091fb26	4.561908
96	0x3f1b4fe9	0.6066881
97	0x4015ca05	2.3404553
98	0x3ec672f5	0.3875958
99	0x400a7196	2.1631827
100	0x3edd30b2	0.43201214
101	0x3f299a50	0.6625109
102	0x3f8b15d7	1.086604
103	0x3f941ad9	1.1570693
104	0x3f3ccbb1	0.7374831
105	0x40035fe3	2.0527275
106	0x3fdf592e	1.744909
107	0x400f9994	2.2437487
108	0x40210033	2.5156372
109	0x3f8f2dcb	1.118585
110	0x3f8e842e	1.1134088
111	0x3f239574	0.6389992
112	0x3faed16a	1.3657658
113	0x3fb66dba	1.4252236
114	0x3f1661a4	0.5874274
115	0x405c320e	3.440555
116	0x3f871f8f	1.0556506
117	0x3f5cce0a	0.8625189
118	0x4075f7fd	3.843261
119	0x407477f6	3.8198218
120	0x3f20ca26	0.62808454
121	0x3eae5721	0.3405085
122	0x3f9d8309	1.2305614
123	0x3f3c19d2	0.734769
124	0x400655e9	2.0989935
125	0x3efa1c34	0.48849642
126	0x3f85904a	1.0434659
127	0x3fd05646	1.6276329

weight f4 [512, 128]
0	0x3d6fa648	0.058508188
1	0xbbf350f5	-0.0074254223
2	0x3be4f417	0.0069871056
3	0x3e288f78	0.16460979
4	0xbda3b81a	-0.07994099
5	0xbd9388d5	-0.07203833
6	0xbe167b5b	-0.14695494
7	0xbd982139	-0.07428212
8	0xbcfb9808	-0.030712143
9	0xbcf78e7a	-0.030219305
10	0xbe47664a	-0.19472614
11	0xbdfc176e	-0.12309156
12	0xbdd787a3	-0.105239175
13	0x3dc1cb9f	0.09462666
14	0x3e213844	0.1574412
15	0x3deeacca	0.11654051
16	0x3d832ff4	0.06405631
17	0xbe7c9e70	-0.24669814
18	0xbc3a37e7	-0.011365867
19	0x3d14aa16	0.03629502
20	0xbba654dc	-0.005076034
21	0x3d3d6ec2	0.046248205
22	0xbda763ea	-0.08173354
23	0xbda139c9	-0.0787235
24	0xbc6b5ce9	-0.014365413
25	0x3e124056	0.14282355
26	0xbd3e4073	-0.046448182
27	0xbda88176	-0.08227818
28	0xbdb99701	-0.09062005
29	0x3da2770a	0.07932861
30	0x3e6683c0	0.22511196
31	0xbdaa59b2	-0.08317889
32	0x3e0ba058	0.13635385
33	0x3dbfd460	0.09366679
34	0xbd065ddf	-0.032804366
35	0xbd81fa88	-0.06346613
36	0x3e19bd54	0.15013629
37	0xbe85219a	-0.26002198
38	0xbb524926	-0.0032087057
39	0x3e6595e1	0.22420456
40	0x3e120f8c	0.14263743
41	0xbe6a9f03	-0.2291222
42	0x3e5a8743	0.21340661
43	0x3df72a9a	0.120686725
44	0x3e101cb8	0.14073455
45	0xbdf65e94	-0.12029758
46	0xbdc419f6	-0.09575264
47	0x3d2bed76	0.041974507
48	0xbd5ff262	-0.054674514
49	0xbd88ee53	-0.06686082
50	0x3d2c5a27	0.042078163
51	0xbde3ff95	-0.11132733
52	0xbe0ece2e	-0.13945839
53	0x3e88d50f	0.2672505
54	0x3e39f833	0.18161087
55	0x3ca5d944	0.020245202
56	0xbd8b1f87	-0.06793123
57	0xbd039df3	-0.032133054
58	0xbb348752	-0.0027546478
59	0xbd99bb9a	-0.07506485
60	0x3dd29825	0.102829255
61	0xbd39bc3f	-0.04534554
62	0xbe3f3f29	-0.18676437
63	0x3c9534d7	0.018213673
64	0x3e35765c	0.17720932
65	0xba3e27c6	-0.00072538515
66	0x3d2fad4b	0.042889874
67	0x3cf324b4	0.029680587
68	0xbe0e0c5d	-0.13871904
69	0xbe42b9c2	-0.19016173
70	0xbdc60a78	-0.096699655
71	0x3e14ffed	0.14550753
72	0x3d120207	0.035646465
73	0x3d25e6d3	0.040503334
74	0xbc998029	-0.01873787
75	0xbe3817d0	-0.17977834
76	0x3cb4d1fb	0.022072783
77	0xbecce7b5	-0.40020528
78	0x3a1a792a	0.00058926886
79	0xbdbbb32d	-0.091650344
80	0xbe91dfb0	-0.28490973
81	0x3eba2d05	0.36362472
82	0x3c08597d	0.008322117
83	0x3e02f3e1	0.12788345
84	0xbdbbe23b	-0.091740094
85	0xbe08e9b8	-0.13370407
86	0xbd650d6b	-0.055921
87	0x3d9a4c53	0.07534089
88	0xbcad60fc	-0.02116441
89	0xbdbaa6d7	-0.091138534
90	0xbe37d143	-0.17950921
91	0xbd356483	-0.04428531
92	0xbdddf6df	-0.108381025
93	0x3cc0f87a	0.023555983
94	0xbd052118	-0.032502264
95	0xbde2c56e	-0.11072813
96	0xbd208d4a	-0.039197244
97	0x3e009868	0.12558138
98	0x3e1a3e83	0.15062909
99	0xbe0ac247	-0.13550673
100	0xbcfcf1a2	-0.030876938
101	0xbe217968	-0.15768969
102	0x3e8baafa	0.27278882
103	0x3d504bb6	0.050853454
104	0x3d3deb99	0.04636726
105	0x3c8a699a	0.016896058
106	0x3cc00d6b	0.023443898
107	0xbe528988	-0.20560277
108	0x3d755def	0.059904035
109	0xbe2bb2c7	-0.16767417
110	0x3d8dbaf3	0.06920423
111	0xbc16a6f6	-0.00919508
112	0x3e557eb0	0.20849109
113	0xbca45510	-0.020060092
114	0xbe5da1f3	-0.2164381
115	0xbebf806e	-0.37402672
116	0x3db1909b	0.086701594
117	0xbcecdb49	-0.028913157
118	0x3cfb075d	0.03064316
119	0x3dac65ef	0.0841788
120	0x3dc12597	0.09430998
121	0x3e40382c	0.18771428
122	0x3decdec1	0.115659244
123	0xbd255dff	-0.040372845
124	0x3b2fc278	0.0026818793
125	0x3c8cfec1	0.01721132
126	0x3d49e40f	0.04928976
127	0xbcd923ff	-0.026506422
128	0x3e848b7b	0.25887665
129	0xbe864315	-0.26223055
130	0xbe921df4	-0.28538477
131	0x3d8e40c4	0.06945947
132	0x3e21c130	0.15796351
133	0xbd3358b1	-0.043785755
134	0xbdffa57e	-0.12482737
135	0xbe09b3a9	-0.13447441
136	0xbe1e7861	-0.15475608
137	0x3d7a889b	0.061165433
138	0x3de98b8e	0.11403571
139	0xbe5a32d2	-0.21308449
140	0xbe404047	-0.1877452
141	0xbcec55b0	-0.028849453
142	0xbd299a09	-0.041406665
143	0x3d916cf9	0.07100863
144	0x3d4f2fb5	0.050582606
145	0x3d8fb5ed	0.070171215
146	0x3d7e6df1	0.062116567
147	0xbe9ff089	-0.312382
148	0x3d961ba3	0.0732949
149	0xbdc3803b	-0.095459424
150	0xbd88753f	-0.06662988
151	0x3e344220	0.1760335
152	0xbd6b894b	-0.05750398
153	0xbdd12cbf	-0.10213613
154	0x3c2743e8	0.010209061
155	0x3e07e8bf	0.1327238
156	0x3db5572a	0.08854516
157	0x3e846518	0.25858378
158	0xbe1a98a5	-0.15097292
159	0x3d6de5c9	0.05808047
160	0x3d56f5ef	0.052480634
161	0xbe5b30a9	-0.21405281
162	0x3e30790f	0.1723368
163	0xbcaf8f07	-0.021430505
164	0x3cb1700f	0.021659879
165	0x3d8dc1be	0.06921719
166	0xbd5cd88a	-0.053917445
167	0x3d2eb685	0.042654533
168	0xbe82f042	-0.25573927
169	0x3e453dea	0.192619
170	0xbdb961b7	-0.09051841
171	0x3dbcefef	0.09225451
172	0xbd8b8983	-0.06813338
173	0x3e17efdd	0.14837594
174	0xbc5f166f	-0.013616188
175	0x3dc2ef63	0.09518316
176	0xbda124e7	-0.07868367
177	0x3d33c4f2	0.043888994
178	0x3df2f257	0.11862629
179	0xbd72b4b9	-0.05925438
180	0xbccf2dba	-0.025290359
181	0xbd642cda	-0.055706836
182	0xbdbb21eb	-0.09137329
183	0x3b8f638f	0.004375882
184	0x3e70a481	0.23500253
185	0xbc00d677	-0.007863632
186	0xbdf30183	-0.11865523
187	0xbce9e0f9	-0.028549658
188	0xbd91d4ee	-0.07120691
189	0x3e0e8041	0.13916112
190	0x3ddbba19	0.10728855
191	0xbd5b264a	-0.053503312
192	0x3bfd4ac4	0.00772986
193	0x3da3651b	0.07978269
194	0xbe06c9d5	-0.1316293
195	0x3e190e6f	0.14946912
196	0x3b3c6315	0.002874558
197	0xbd4e3d27	-0.05035129
198	0x3b980175	0.0046388456
199	0xbe26bdcd	-0.16283341
200	0x3cc27207	0.023736013
201	0xbd4f64e2	-0.05063332
202	0xbd988897	-0.074479274
203	0xbe3417c4	-0.17587191
204	0xba5b525c	-0.00083664595
205	0xbe488842	-0.19583228
206	0x3a8792cf	0.0010343435
207	0xbe0270dc	-0.12738365
208	0x3ca6b06c	0.020347796
209	0xbde505b6	-0.1118273
210	0x3e270f08	0.16314328
211	0xbe0e6474	-0.13905507
212	0xbcc9e678	-0.024646029
213	0xbc88390e	-0.016628768
214	0xbe3c1cf2	-0.18370417
215	0xbdaf67da	-0.0856473
216	0xbe34241e	-0.17591903
217	0xbde66454	-0.11249605
218	0x3c0b6d53	0.008509952
219	0xbd2dc5d1	-0.04242498
220	0xbd0ed2b5	-0.034868915
221	0x3db70998	0.08937377
222	0xbe6d0248	-0.23145401
223	0xbe323911	-0.17404582
224	0x3e248559	0.16066493
225	0xbc8bc006	-0.017059337
226	0xbe4e81a8	-0.20166647
227	0xbd0a5c31	-0.033779327
228	0xbe355496	-0.17708048
229	0xbdd6aee9	-0.1048258
230	0xbdc020fe	-0.09381293
231	0xbd966a09	-0.07344443
232	0xbd736822	-0.05942548
233	0x3e1fe9f3	0.15616588
234	0xbe0a4464	-0.13502651
235	0x3e1ed483	0.15510754
236	0xbdbb9b0f	-0.091604345
237	0xbe67fffb	-0.22656243
238	0xbd9bb529	-0.07602913
239	0xbdd4a8e7	-0.10383778
240	0x3d8b967c	0.06815812
241	0xbd83ec79	-0.06441588
242	0xbd83e78b	-0.06440648
243	0x3daca5f9	0.08430094
244	0xbdc5f048	-0.09664971
245	0x3de991e7	0.11404782
246	0x3d9647a4	0.07337883
247	0x3bc45524	0.005991595
248	0xbd7ced36	-0.06174966
249	0xbe34c030	-0.17651439
250	0x3dedd826	0.11613493
251	0x3d1e65e1	0.038671378
252	0xbdf9a139	-0.12188954
253	0xbc0954b8	-0.008382015
254	0xbd0159ec	-0.031579897
255	0xbdb8064a	-0.089855745

bias f4 [512]
0	0x399de07f	0.00030112636
1	0x395582c5	0.00020361978
2	0xb8212177	-3.8416558e-05
3	0xbb04897b	-0.0020223546
4	0x36f32ce9	7.2471926e-06
5	0xb73b9a65	-1.1182016e-05
6	0x39b05eef	0.00033640067
7	0x387648bb	5.8718706e-05
8	0x380b8214	3.3261327e-05
9	0xba28fc30	-0.000644627
10	0xb87b132a	-5.986091e-05
11	0xbac90733	-0.0015337229
12	0x377b023a	1.4961284e-05
13	0xb9bd7fb7	-0.00036144044
14	0x397fee7f	0.00024407542
15	0xb8f89a3b	-0.00011854289
16	0x3905b100	0.00012749806
17	0x37fd51a6	3.019797e-05
18	0xb90e421d	-0.00013566804
19	0x37e2b8e0	2.7027389e-05
20	0x383f257b	4.5572855e-05
21	0x38802614	6.110608e-05
22	0x39635d77	0.00021683225
23	0x3a2129e8	0.0006147907
24	0xb8cdaf9c	-9.8078715e-05
25	0x388f6606	6.837775e-05
26	0xb9d403ef	-0.00040438722
27	0x39b6a2be	0.00034834997
28	0x396f26a2	0.00022807208
29	0xba11a493	-0.00055558345
30	0x38180f53	3.6253896e-05
31	0x3994ad9c	0.0002835811
32	0xb8e4f689	-0.00010917808
33	0x3959ca19	0.0002077002
34	0x380bdce3	3.33459e-05
35	0x39706403	0.00022925441
36	0x3827c30d	3.9997558e-05
37	0xb8212de8	-3.8428145e-05
38	0x38481857	4.7706384e-05
39	0x3982592d	0.00024861973
40	0xb93d1bc9	-0.00018034795
41	0xb8e7b6a7	-0.0001104896
42	0xb967bdc4	-0.0002210057
43	0xb72acd8b	-1.0180646e-05
44	0x397beabe	0.00024024674
45	0x39150c89	0.00014214417
46	0x3878bbe1	5.9302783e-05
47	0xb6e73dd1	-6.891533e-06
48	0xb90b9595	-0.00013311797
49	0xb9ca9800	-0.0003864169
50	0xb8c9e33e	-9.626754e-05
51	0xb80e4969	-3.3923807e-05
52	0xb9430684	-0.00018599076
53	0x3963afa7	0.00021713843
54	0x38981101	7.251092e-05
55	0xb9a481f7	-0.0003137735
56	0x38572190	5.1291252e-05
57	0x3651d2b5	3.1266075e-06
58	0x38ed0155	0.00011301289
59	0xb7bcac69	-2.2491631e-05
60	0x3a018b59	0.0004941724
61	0xb864027c	-5.436175e-05
62	0xb96e4ec6	-0.00022726794
63	0xb7b183c4	-2.1161402e-05
64	0x38fecec1	0.00012150175
65	0x377a8447	1.4931959e-05
66	0x3804c6f2	3.1656535e-05
67	0xba4cde65	-0.0007815122
68	0xb822bf47	-3.880195e-05
69	0x3999b15b	0.00029314574
70	0x386bf3ac	5.6255303e-05
71	0xb94826ca	-0.00019087936
72	0x394f4a21	0.00019768674
73	0xb768703d	-1.385441e-05
74	0x374924b5	1.198908e-05
75	0x39ca3396	0.00038566877
76	0xb9faae03	-0.00047813365
77	0xb9d6cdc6	-0.00040970574
78	0xb9994aa0	-0.00029238034
79	0x382e74db	4.1593663e-05
80	0x38f6c70b	0.00011767269
81	0x39827d32	0.0002488881
82	0xb8f3eb2a	-0.00011630946
83	0xb96d3eb8	-0.00022625446
84	0xb8f224ec	-0.000115463365
85	0x38ebfda8	0.000112529204
86	0x38cb185a	9.68433e-05
87	0x387be773	6.0058617e-05
88	0xb92f7ef9	-0.00016736602
89	0xb92c4650	-0.00016429392
90	0xb95899ce	-0.00020656662
91	0xb865c0f9	-5.4777574e-05
92	0x3a231859	0.00062215846
93	0x3a64013b	0.0008697693
94	0x3a05ad35	0.0005099357
95	0x389c5f62	7.456426e-05
96	0xb7c13c72	-2.303554e-05
97	0x39cd9525	0.00039211768
98	0xb98c8ecc	-0.00026809273
99	0x38a3a19f	7.80255e-05
100	0xb8e485cf	-0.00010896811
101	0x37f35801	2.9008837e-05
102	0x39c7e59d	0.00038127313
103	0x38c07489	9.17698e-05
104	0x38d65b76	0.00010221351
105	0xb909b3f7	-0.0001313238
106	0x38008667	3.064275e-05
107	0x3891b7ae	6.948352e-05
108	0xb8ac4fe1	-8.216478e-05
109	0x39cecb02	0.00039442634
110	0xb8aa8589	-8.1311046e-05
111	0xb913b97e	-0.00014088114
112	0x39f75486	0.00047174486
113	0x38f52366	0.00011689104
114	0xb91a97bc	-0.0001474311
115	0xb9304f83	-0.00016814288
116	0xb8c5655e	-9.412573e-05
117	0xb7dfdde1	-2.6686992e-05
118	0x3843d16e	4.668667e-05
119	0x3a42c03a	0.00074291567
120	0x39d38c3c	0.0004034954
121	0xb846ea18	-4.7424895e-05
122	0x391b00ea	0.00014782292
123	0xb69374f7	-4.394558e-06
124	0x3864177d	5.438131e-05
125	0x38f7c1de	0.000118139884
126	0x38790611	5.9371876e-05
127	0xb9a08895	-0.0003061934
128	0xb990d2b4	-0.00027622806
129	0xb6b9615a	-5.524763e-06
130	0xb819d327	-3.6674694e-05
131	0xb9fb1647	-0.0004789105
132	0xb93473d3	-0.00017209286
133	0x37d004cb	2.4797764e-05
134	0x38a9fd5f	8.105742e-05
135	0x394820a1	0.00019085642
136	0x38f90873	0.00011874819
137	0xb8efcf00	-0.00011434965
138	0xb902e16f	-0.00012481747
139	0x3889b345	6.5660606e-05
140	0x399d5f40	0.0003001634
141	0x389dbe3d	7.521778e-05
142	0x37f9c02f	2.9772606e-05
143	0xb9d8bb27	-0.0004133817
144	0x3681cbeb	3.8682388e-06
145	0xbaaf6480	-0.0013381392
146	0x38ba7a26	8.891923e-05
147	0xb95d6262	-0.00021112853
148	0x38c2fd49	9.297819e-05
149	0x37a845d4	2.0059677e-05
150	0xb8f72c94	-0.00011786181
151	0x379a9a8c	1.8430197e-05
152	0x38b9d21a	8.860622e-05
153	0xba370cbf	-0.00069827953
154	0x38ec61fc	0.00011271608
155	0x39b30d4c	0.00034151447
156	0x3887e58f	6.48006e-05
157	0x38a55957	7.884454e-05
158	0xba63afbf	-0.0008685551
159	0xb8277321	-3.9923125e-05
160	0xb85ade67	-5.218238e-05
161	0xb8f72b92	-0.000117859934
162	0x392928ee	0.00016132343
163	0xb99ea3e2	-0.0003025821
164	0x38f9a341	0.00011903654
165	0x399aa2cc	0.00029494462
166	0x38e0c9a9	0.000107187145
167	0x39e29a2a	0.0004322094
168	0xb9543ee6	-0.00020241327
169	0x372bfad2	1.0250793e-05
170	0xb7a06a8e	-1.9123105e-05
171	0x38a608a6	7.917108e-05
172	0x3897539f	7.215817e-05
173	0x38a2331e	7.734283e-05
174	0xb83bbe30	-4.47614e-05
175	0x38b74ae7	8.740072e-05
176	0xb80ea3a6	-3.4007848e-05
177	0xb9a1817e	-0.00030804792
178	0x395764da	0.00020541568
179	0x37d52184	2.5407186e-05
180	0x39b34187	0.00034190362
181	0xb6b07bf2	-5.259638e-06
182	0xb9d17ef1	-0.00039958165
183	0xb9bbdec7	-0.00035833401
184	0x398265c9	0.00024871368
185	0xb94c73c4	-0.00019498082
186	0x391f79bc	0.00015208771
187	0x357d6116	9.4391123e-07
188	0xb9a24477	-0.00030950058
189	0x38b0f949	8.438767e-05
190	0xb718bf22	-9.104408e-06
191	0xb9942fad	-0.0002826428
192	0x3917c817	0.00014475021
193	0xba09758b	-0.00052436505
194	0xb768cad5	-1.3875503e-05
195	0x37d7965d	2.5700016e-05
196	0xb7c3aef3	-2.3327279e-05
197	0x38130eb2	3.5061217e-05
198	0xb895f7bd	-7.1510185e-05
199	0xba3d5def	-0.0007223775
200	0xb8c55305	-9.4091556e-05
201	0x36b96ca2	5.526076e-06
202	0xb9e4a1f2	-0.00043608207
203	0xb9409160	-0.00018364703
204	0x39bbeacf	0.00035842365
205	0x38c8947c	9.5644005e-05
206	0xba836c09	-0.0010026704
207	0xb90dbfb3	-0.00013518221
208	0x38c83aca	9.5476935e-05
209	0xb81c89d6	-3.7321668e-05
210	0x377fe5f8	1.5252728e-05
211	0xba4c7e70	-0.0007800823
212	0xb9cbad9f	-0.00038848535
213	0xb8d4c3b9	-0.00010145404
214	0xb9a90693	-0.0003223909
215	0xb9376119	-0.00017488412
216	0x36eee74f	7.1198806e-06
217	0xb8595f25	-5.1825442e-05
218	0x38dcc108	0.00010526372
219	0x38c06bfb	9.1753864e-05
220	0xb9ef3001	-0.00045621398
221	0x39041b69	0.00012598712
222	0xb8184e08	-3.6312296e-05
223	0x399863d1	0.00029066068
224	0xb9063129	-0.0001279755
225	0x38d3addb	0.00010093647
226	0xba46d129	-0.0007584268
227	0x38c13f96	9.214801e-05
228	0x38dc0b18	0.00010492484
229	0xb6d51861	-6.3507327e-06
230	0xb8710518	-5.746362e-05
231	0x38d22fae	0.00010022461
232	0xb6d11d97	-6.23213e-06
233	0x3928385a	0.00016042721
234	0x3900bd9c	0.00012277666
235	0xb9fec335	-0.00048592096
236	0xba3e90e9	-0.0007269518
237	0x3862c1c6	5.4063064e-05
238	0xb8a577e7	-7.890147e-05
239	0xb90b7ed2	-0.00013303317
240	0x3921d43d	0.00015433221
241	0x3a2e7f03	0.00066564995
242	0xb80892c2	-3.2561606e-05
243	0x39eb4758	0.00044875848
244	0x389de831	7.5295924e-05
245	0xb73776a8	-1.0935277e-05
246	0xb8509b3b	-4.9735634e-05
247	0x3969f7ca	0.0002231292
248	0xb97ef4f9	-0.00024314587
249	0xb93e18f0	-0.00018129102
250	0xb8211289	-3.8402653e-05
251	0x38a93321	8.0680715e-05
252	0xba183337	-0.00058059715
253	0xb9827686	-0.0002488384
254	0xb88e928e	-6.7983856e-05
255	0x38709ea2	5.7368197e-05

weight f4 [512]
0	0x3f7174a2	0.9431859
1	0x3f7094c0	0.93976974
2	0x3f79005d	0.9726618
3	0x3f8ce296	1.1006649
4	0x3f87376b	1.0563787
5	0x3f767e7a	0.9628674
6	0x3f804268	1.0020266
7	0x3f85f26f	1.046461
8	0x3f83f437	1.0308903
9	0x3f7de6dd	0.99180394
10	0x3f857e7b	1.0429224
11	0x3f8278d7	1.0193127
12	0x3f811a64	1.0086179
13	0x3f8bfbc3	1.0936207
14	0x3f788868	0.9708314
15	0x3f7908f8	0.9727931
16	0x3f7c0854	0.9845021
17	0x3f7be41d	0.9839495
18	0x3f7d4021	0.9892598
19	0x3f7aa6fa	0.97911036
20	0x3f801c49	1.0008632
21	0x3f830155	1.0234782
22	0x3f8c189f	1.0945014
23	0x3f7e1355	0.9924825
24	0x3f7aa7f7	0.97912544
25	0x3f7c46b6	0.98545396
26	0x3f8c4d79	1.0961143
27	0x3f778f3d	0.9670294
28	0x3f77cd57	0.967977
29	0x3f89d5d8	1.0768385
30	0x3f7003ba	0.93755686
31	0x3f8727ff	1.0559081
32	0x3f800cb5	1.0003878
33	0x3f7a9986	0.9789051
34	0x3f874cbf	1.0570296
35	0x3f725f78	0.94676924
36	0x3f80aeee	1.0053384
37	0x3f7c1431	0.9846831
38	0x3f76e22e	0.9643887
39	0x3f743d9e	0.9540652
40	0x3f8659ed	1.0496193
41	0x3f8033b0	1.0015774
42	0x3f822daa	1.0170186
43	0x3f6ab819	0.9168716
44	0x3f7be2d1	0.9839297
45	0x3f738791	0.9512873
46	0x3f838ed3	1.0277961
47	0x3f7d163a	0.9886204
48	0x3f8444b8	1.0333471
49	0x3f80d116	1.0063808
50	0x3f7767fb	0.96643037
51	0x3f7c7efb	0.98631257
52	0x3f769980	0.9632797
53	0x3f7180a5	0.9433692
54	0x3f80a66d	1.0050789
55	0x3f85e978	1.0461874
56	0x3f786df8	0.970428
57	0x3f85db8e	1.0457628
58	0x3f80b19d	1.0054203
59	0x3f6aee12	0.91769516
60	0x3f80fbb9	1.007682
61	0x3f7bd958	0.98378515
62	0x3f846339	1.034278
63	0x3f7c5797	0.9857115
64	0x3f7b1055	0.98071796
65	0x3f84ffd1	1.0390569
66	0x3f707237	0.9392428
67	0x3f79f86d	0.9764469
68	0x3f7f35c9	0.99691445
69	0x3f815547	1.010415
70	0x3f866e93	1.0502495
71	0x3f78aa69	0.97135025
72	0x3f74aa9a	0.9557282
73	0x3f810a88	1.0081339
74	0x3f817213	1.0112938
75	0x3f7bc43d	0.9834631
76	0x3f7999d6	0.9750036
77	0x3f82e28e	1.0225389
78	0x3f728c98	0.9474578
79	0x3f78c2cf	0.97172254
80	0x3f77a858	0.9674125
81	0x3f80c67b	1.0060571
82	0x3f7f8ed6	0.99827325
83	0x3f68bbf9	0.90911824
84	0x3f8360f6	1.0263965
85	0x3f74c83e	0.95618045
86	0x3f7a3fd1	0.97753626
87	0x3f87f038	1.0620184
88	0x3f7a3e5c	0.977514
89	0x3f8f7a06	1.1209114
90	0x3f7db6b6	0.9910692
91	0x3f734c84	0.9503863
92	0x3f81d446	1.0142906
93	0x3f7c0e95	0.9845975
94	0x3f870187	1.0547341
95	0x3f7b0bcb	0.9806487
96	0x3f796396	0.9741758
97	0x3f81ccc9	1.014062
98	0x3f825f56	1.0185344
99	0x3f7257ea	0.94665396
100	0x3f7c59f7	0.98574775
101	0x3f7f9574	0.9983742
102	0x3f8289d2	1.019831
103	0x3f7f1d86	0.99654424
104	0x3f82fd66	1.0233581
105	0x3f7aff04	0.9804537
106	0x3f73326b	0.94998807
107	0x3f6ea864	0.93225694
108	0x3f71c6d8	0.94444036
109	0x3f726f54	0.94701123
110	0x3f7d6722	0.98985493
111	0x3f7d2e4d	0.98898774
112	0x3f81ceaa	1.0141194
113	0x3f8b4466	1.0880249
114	0x3f746419	0.95465237
115	0x3f91142e	1.1334283
116	0x3f7eb2e3	0.9949171
117	0x3f85cc46	1.0452964
118	0x3f6ecb71	0.93279177
119	0x3f75a56a	0.95955527
120	0x3f8ab979	1.0837852
121	0x3f7954e2	0.97395146
122	0x3f781d10	0.96919346
123	0x3f703275	0.9382699
124	0x3f809c1d	1.0047642
125	0x3f7f451b	0.9971482
126	0x3f772848	0.9654584
127	0x3f803a90	1.0017872
128	0x3f6d9e22	0.92819417
129	0x3f766eb0	0.96262646
130	0x3f7c79b8	0.9862323
131	0x3f8ad264	1.0845456
132	0x3f68a52a	0.9087702
133	0x3f80bbf1	1.0057355
134	0x3f781724	0.9691031
135	0x3f78a9cb	0.97134084
136	0x3f842c4b	1.0326017
137	0x3f7d6a5e	0.9899043
138	0x3f86d23b	1.0532907
139	0x3f739090	0.9514246
140	0x3f84705a	1.0346787
141	0x3f8639ed	1.0486428
142	0x3f86c895	1.0529963
143	0x3f6e82a5	0.931681
144	0x3f80871c	1.0041232
145	0x3f83e303	1.0303653
146	0x3f7edc5e	0.99555004
147	0x3f84ceaa	1.0375569
148	0x3f8b60d4	1.0888925
149	0x3f893709	1.071992
150	0x3f7d07cc	0.9884002
151	0x3f76ca58	0.964025
152	0x3f848c71	1.0355359
153	0x3f8c72cb	1.0972532
154	0x3f853bab	1.0408834
155	0x3f84deaa	1.0380452
156	0x3f77ecf9	0.96845967
157	0x3f714903	0.9425203
158	0x3f824079	1.0175925
159	0x3f7cb469	0.98712784
160	0x3f76b305	0.9636691
161	0x3f94d7e3	1.1628383
162	0x3f79f757	0.97643036
163	0x3f82f152	1.0229895
164	0x3f88ca6b	1.0686773
165	0x3f814eeb	1.0102209
166	0x3f7907c9	0.97277504
167	0x3f7c05f5	0.9844659
168	0x3f805a08	1.0027475
169	0x3f7c0ada	0.9845406
170	0x3f7eb5e2	0.9949628
171	0x3f81229e	1.0088689
172	0x3f7d191c	0.9886644
173	0x3f7ddf42	0.9916879
174	0x3f6bb544	0.92073464
175	0x3f865a90	1.0496387
176	0x3f82210f	1.0166339
177	0x3f7a1f96	0.97704446
178	0x3f82fb20	1.0232887
179	0x3f739595	0.9515012
180	0x3f742c29	0.95379883
181	0x3f810e70	1.0082531
182	0x3f792c12	0.9733287
183	0x3f815278	1.0103292
184	0x3f81e01c	1.0146518
185	0x3f867c64	1.0506711
186	0x3f815466	1.0103881
187	0x3f70fec8	0.94138765
188	0x3f79fda7	0.9765267
189	0x3f7cae81	0.9870377
190	0x3f795210	0.9739084
191	0x3f86769c	1.0504947
192	0x3f7ce3d9	0.9878517
193	0x3f8ae5a4	1.0851331
194	0x3f803475	1.0016009
195	0x3f80f1a2	1.007374
196	0x3f81ad3a	1.013099
197	0x3f81a671	1.0128919
198	0x3f88d703	1.0690616
199	0x3f75c3e7	0.9600205
200	0x3f7f21f3	0.9966118
201	0x3f7a0531	0.9766417
202	0x3f77ee5d	0.9684809
203	0x3f779391	0.96709543
204	0x3f897ef2	1.0741866
205	0x3f78c2ad	0.9717205
206	0x3f8dfe22	1.109318
207	0x3f732544	0.9497874
208	0x3f806f9d	1.0034062
209	0x3f75fc6b	0.96088284
210	0x3f830929	1.023717
211	0x3f82c2a7	1.0215653
212	0x3f72802e	0.94726837
213	0x3f84e1a1	1.0381356
214	0x3f81b97b	1.0134729
215	0x3f820dd0	1.0160465
216	0x3f783942	0.9696237
217	0x3f80d44f	1.0064791
218	0x3f804813	1.0021995
219	0x3f7d8e2d	0.9904507
220	0x3f704f6c	0.9387119
221	0x3f8291cc	1.0200744
222	0x3f867a55	1.0506083
223	0x3f87db3c	1.061378
224	0x3f7e31b0	0.9929457
225	0x3f875fab	1.057607
226	0x3f7e03dc	0.9922464
227	0x3f8431d7	1.032771
228	0x3f7d8f42	0.9904672
229	0x3f81e3a3	1.0147594
230	0x3f870b7f	1.0550383
231	0x3f7b1dd8	0.9809241
232	0x3f82c2b1	1.0215665
233	0x3f71e381	0.9448777
234	0x3f7de218	0.99173117
235	0x3f736f91	0.9509211
236	0x3f8481f7	1.0352162
237	0x3f65fcdd	0.89838964
238	0x3f79ad54	0.975301
239	0x3f8124ff	1.0089415
240	0x3f870dea	1.0551121
241	0x3f846c6f	1.0345591
242	0x3f73a0de	0.9516734
243	0x3f80a6c0	1.0050888
244	0x3f8944ac	1.0724082
245	0x3f80e2ad	1.0069176
246	0x3f79b836	0.9754671
247	0x3f7cc33d	0.9873541
248	0x3f7a906e	0.9787663
249	0x3f84e064	1.0380979
250	0x3f77ea4f	0.968419
251	0x3f7a716c	0.9782932
252	0x3f7121c6	0.9419216
253	0x3f6c35a1	0.9226933
254	0x3f74fe6b	0.9570071
255	0x3f7f343f	0.99689096
