mlruns/215390760651037247/89a3426ef2344032b0f1fb11e8a1b2d9/artifacts/model/data/model.pth (torch, 25768 bytes, 7 tensors)

weight f4 [32, 14]
0	0x3e5cb2f9	0.21552648
1	0xbe2aad50	-0.16667676
2	0xbcd22ff2	-0.025657628
3	0xbde7202d	-0.11285434
4	0x3e304fab	0.17217891
5	0x3d46f997	0.04857787
6	0x3e2ed1d2	0.17072228
7	0x3e0b4eb5	0.13604243
8	0x3e6a9fc1	0.22912504
9	0x3dc25d64	0.09490469
10	0x3e3bbf36	0.1833466
11	0xbdb57049	-0.08859307
12	0x3ec53a85	0.3852121
13	0xbd97cf00	-0.07412529
14	0x3e8a8573	0.2705494
15	0x3ce67322	0.028131071
16	0x3c77cfe3	0.015125248
17	0x3e20dbe0	0.15708876
18	0x3e4a0976	0.19730172
19	0xbdb5e0a6	-0.08880739
20	0x3ded66dc	0.115918845
21	0xbec08731	-0.37603143
22	0xbe696d51	-0.22795607
23	0xbddf0939	-0.10890431
24	0xbe20c068	-0.15698397
25	0x3eae1df8	0.3400724
26	0x3ed5a01f	0.41723725
27	0x3e91db5e	0.28487676
28	0x3d13a28c	0.03604369
29	0xbda8bc66	-0.08239059
30	0x3ccf3b43	0.025296813
31	0x3e734ce1	0.23759796
32	0x3ca6ed95	0.02037696
33	0xbe25ed9d	-0.16203924
34	0x3d842b54	0.06453577
35	0xbed0220f	-0.40650985
36	0x3e044823	0.12918143
37	0x3e9e25c9	0.30888203
38	0x3e0064cb	0.1253845
39	0x3e0d569a	0.13802567
40	0x3f57fdea	0.8437182
41	0x3e1b7332	0.15180662
42	0x3deff496	0.11716573
43	0xbe0e2ca1	-0.13884212
44	0xbe14b1d8	-0.14520967
45	0x3e791608	0.2432481
46	0x3e85f502	0.2616349
47	0xbe38a19d	-0.180304
48	0xbe89c3a1	-0.26907066
49	0x3e6a55ed	0.2288434
50	0x3e160a9d	0.14652486
51	0x3d21a06b	0.039459627
52	0x3e71e4f2	0.23622492
53	0xbd5583db	-0.0521277
54	0xbd7d2e74	-0.06181188
55	0x3e043231	0.12909772
56	0xbdd70cd2	-0.10500492
57	0x3e980a02	0.29695135
58	0xbd8efaa1	-0.069813974
59	0xbe545231	-0.20734479
60	0x3ca2e30e	0.019883659
61	0x3e258e85	0.16167648
62	0xbdec4aea	-0.11537726
63	0x3de8a848	0.11360222
64	0x3e1cc687	0.15310107
65	0xbdbb14f2	-0.091348544
66	0x3e7e7d77	0.24852549
67	0x3e04b871	0.12960984
68	0x3ead857c	0.33890903
69	0xbe2d47a2	-0.16921857
70	0xbe18ac46	-0.14909467
71	0x3e625b7d	0.22105213
72	0x3e55816d	0.20850153
73	0xbdc2eeb0	-0.09518182
74	0xbe82e175	-0.25562635
75	0xbe409301	-0.18806078
76	0xbe80e382	-0.25173575
77	0xbe977493	-0.29581127
78	0x3e6e85f5	0.23293288
79	0x3ebcf925	0.36908832
80	0x3e0cf2ef	0.13764547
81	0x3ea0cc23	0.31405744
82	0x3ece8fa8	0.40343976
83	0xbd1f5147	-0.03889587
84	0x3dc5ce97	0.096585445
85	0x3df91b1f	0.12163376
86	0x3e912386	0.28347415
87	0xbe1b53cd	-0.15168686
88	0xbc250e9b	-0.010074283
89	0xbde92ddd	-0.11385701
90	0x3d87b840	0.0662694
91	0xbe8597fc	-0.26092517
92	0xbe3b9b5f	-0.18320988
93	0x3d7c07dc	0.061530933
94	0xbdb4339c	-0.08798906
95	0xbb9fc81b	-0.0048761494
96	0x3eef1ec3	0.46703157
97	0x3e1a0d45	0.15044124
98	0x3de9e89c	0.1142132
99	0x3e6fd1a4	0.23419815
100	0xbe5a35c3	-0.21309571
101	0xbe886e6a	-0.2664674
102	0xbe27d328	-0.16389143
103	0xbe338057	-0.17529427
104	0xbc87975f	-0.016551672
105	0xbe1c3964	-0.15256268
106	0xbd074e82	-0.033033855
107	0xbe1ba256	-0.15198645
108	0x3e32f493	0.1747611
109	0x3e6b9b37	0.23008429
110	0x3ee89388	0.45425057
111	0x3c319bb8	0.010840349
112	0x3d20f33b	0.039294463
113	0xbe2395e7	-0.15975152
114	0xbe4cdca3	-0.20006041
115	0xbe399838	-0.18124473
116	0x3e08d755	0.13363393
117	0xbe1c7954	-0.15280658
118	0x3d70b849	0.058769498
119	0xbe8f4406	-0.27981585
120	0xbdc43c63	-0.0958183
121	0x3f0a2e66	0.5397705
122	0x3e859d8e	0.26096767
123	0xbe446b14	-0.19181472
124	0x3ecefe28	0.4042828
125	0xbd90f270	-0.07077491
126	0xbc74a38d	-0.014931572
127	0xbd89f247	-0.06735664
128	0x3e6ae85b	0.22940199
129	0x3e523f04	0.20531851
130	0xbde6b740	-0.11265421
131	0x3cfa1ef9	0.030532347
132	0x3dc38973	0.09547701
133	0xbe3b76f7	-0.183071
134	0x3e35cde8	0.17754328
135	0x3e19f48b	0.15034692
136	0xbe82a406	-0.25515765
137	0x3cca0602	0.024661068
138	0x3f04fdbe	0.5194968
139	0x3e6172be	0.22016427
140	0x3ceb64fe	0.02873468
141	0x3e95b34a	0.2923835
142	0x3e540b0b	0.20707338
143	0x3e92b920	0.28656864
144	0x3e9c8eb2	0.30577618
145	0xbe25dcf8	-0.16197574
146	0x3db70628	0.08936721
147	0x3da354b6	0.07975142
148	0xbe38cbe4	-0.18046528
149	0x3eb3599e	0.3502931
150	0x3e863bef	0.262176
151	0x3e82f449	0.25577
152	0x3ec36d9e	0.3816957
153	0x3e4c89a8	0.19974387
154	0x3eb16300	0.34645844
155	0xbc965fc7	-0.018356217
156	0x3dc7c436	0.09754221
157	0xbdf267f5	-0.118362345
158	0xbdc01a6d	-0.0938004
159	0x3e63567f	0.22200964
160	0x3e0568b7	0.13028227
161	0xbd12e8df	-0.035866614
162	0xbdac9d7e	-0.08428477
163	0x3e99dbcd	0.30050507
164	0x3d8dbf74	0.069212824
165	0xbe96dfc6	-0.294676
166	0x3eaf1cbc	0.3420161
167	0xbdb3b91a	-0.0877554
168	0x3e101f43	0.14074425
169	0x3e504b54	0.20341235
170	0xbe8e6a1e	-0.27815336
171	0x3e88c7af	0.26714846
172	0xbdeca882	-0.11555578
173	0x3dceb6b3	0.10093441
174	0xbbaba104	-0.0052377004
175	0xbd9a18e5	-0.075242795
176	0xbe954e16	-0.29161137
177	0xbe05916d	-0.13043757
178	0xbe375ca6	-0.17906436
179	0xbe35beb2	-0.17748526
180	0x3ed30878	0.412174
181	0x3e76ffdd	0.24121042
182	0x3e62962e	0.22127602
183	0x3e94978d	0.29021874
184	0xbeb360cb	-0.35034785
185	0x3b4744d0	0.0030406006
186	0x3e2a110e	0.16608068
187	0x3e59573c	0.21224684
188	0x3e60c56c	0.2195031
189	0xbdd1f4be	-0.10251759
190	0xbe74772f	-0.2387359
191	0xbde8412d	-0.11340556
192	0xbdac0b1b	-0.08400556
193	0xbe851a5b	-0.2599667
194	0x3efd4523	0.4946681
195	0x3d0ff750	0.035147965
196	0x3e3a2058	0.181764
197	0x3ea580bc	0.3232478
198	0x3e81f87d	0.25384894
199	0xbcda87a7	-0.026676012
200	0xbe56e4de	-0.20985743
201	0x3e2157a1	0.15756084
202	0xbd2cc564	-0.042180434
203	0xbe109bdf	-0.1412196
204	0xbde579c2	-0.11204864
205	0xbe06a3e8	-0.13148463
206	0xbc420f4a	-0.0118444655
207	0xbe231b8c	-0.15928477
208	0xbd09ffa4	-0.033691064
209	0x3e97388a	0.29535323
210	0x3e61e1c9	0.22058786
211	0xbdd3a4d7	-0.10334175
212	0xbde6f8d5	-0.1127793
213	0xbe917c30	-0.2841506
214	0xbe6ba7e5	-0.23013265
215	0xbd999a2f	-0.07500111
216	0xbe5abe4f	-0.2136166
217	0x3d34d91f	0.044152375
218	0x3d098cb3	0.033581447
219	0x3ebe9421	0.37222388
220	0x3c5c1d42	0.01343471
221	0x3e670c12	0.22563198
222	0x3e839c06	0.25704974
223	0xbd9f2e38	-0.077724874
224	0x3e2b1066	0.16705474
225	0xbe93d4ad	-0.28873196
226	0xbdb467ee	-0.088088855
227	0x3d8f09c4	0.069842845
228	0x3dd224c6	0.1026092
229	0x3e1dc891	0.15408541
230	0xbe44c6d8	-0.19216478
231	0xbec42bec	-0.3831476
232	0x3e266c90	0.16252351
233	0x3ec7502c	0.38928354
234	0xbd80eca1	-0.062951334
235	0xbcc09f83	-0.023513561
236	0x3f1c0c10	0.60955906
237	0xbe6abcf5	-0.22923644
238	0x3d2790e7	0.040909674
239	0x3cbc5e0a	0.02299406
240	0x3e6c3ffc	0.23071283
241	0xbe139f23	-0.14416175
242	0xbe61ebc0	-0.22062588
243	0x3d56ba47	0.05242374
244	0x3e5eda55	0.21762975
245	0xbea5756d	-0.3231615
246	0xbdca6655	-0.098827995
247	0xbe7a0ed1	-0.24419715
248	0x3e2b9f2b	0.16759937
249	0x3dac661f	0.084179156
250	0x3f147a6a	0.5799929
251	0x3ecbd553	0.3981119
252	0x3dd16f9a	0.102263644
253	0x3e9fb8e4	0.31195748
254	0x3e4f9961	0.20273353
255	0x3e284a85	0.16434677

bias f4 [32]
0	0x3d2d24b0	0.042271316
1	0x3cb21440	0.021738172
2	0x3f0e0ff1	0.55493075
3	0x3d1c9223	0.038225304
4	0x3eebb82f	0.46038958
5	0x3d0eb192	0.034837313
6	0x3e32c9d3	0.17459802
7	0x3ed75472	0.42056614
8	0x3e252d14	0.16130477
9	0x3f139354	0.5764668
10	0xbcc997f6	-0.024608593
11	0x3f026284	0.5093157
12	0x3f02090d	0.5079506
13	0x3e596192	0.21228626
14	0xbc2ecd67	-0.010669089
15	0x3e9a4e88	0.3013804
16	0x3ec1e4e6	0.37869948
17	0x3d02114a	0.03175477
18	0x3ed43209	0.41444424
19	0x3f11ce6a	0.5695559
20	0x3e6bf2c7	0.23041831
21	0x3e1cf944	0.15329462
22	0xbd7cad16	-0.061688505
23	0x3ea4d227	0.32191584
24	0x3d329138	0.043595523
25	0x3f11f7c9	0.57018715
26	0x3e146663	0.14492182
27	0x3f0e194b	0.55507344
28	0xbd5c4575	-0.053777177
29	0x3e53019c	0.20606083
30	0x3e0959fa	0.1341323
31	0x3f064911	0.5245524

weight f4 [64, 32]
0	0x3becfdb2	0.0072323913
1	0x3b19ade1	0.0023449587
2	0x3e17a29a	0.14808121
3	0xbdc770d8	-0.0973832
4	0x3e2441b5	0.1604069
5	0x3e0f9e3e	0.14025208
6	0x3e2f36e2	0.1711078
7	0xbd0eccf8	-0.034863442
8	0x3e262cfe	0.162281
9	0x3e69cd8b	0.22832315
10	0x3e13ec58	0.14445627
11	0x3ea0b166	0.31385344
12	0xbd0e9a93	-0.034815382
13	0x3e366b68	0.1781441
14	0xbe16ffa4	-0.14745957
15	0x3a704d02	0.00091667485
16	0x3ead3f06	0.33837146
17	0xbe2cfcf4	-0.16893369
18	0x3d3b3bf2	0.045711465
19	0x3e8ad278	0.271137
20	0xbdd3039c	-0.10303423
21	0x3ea02422	0.31277567
22	0xbe75ebfe	-0.24015805
23	0x3d0fd93c	0.03511928
24	0xbb7f1fbb	-0.0038928825
25	0x3d2d064c	0.042242333
26	0xbd0e0c60	-0.03467977
27	0x3c504997	0.012712858
28	0x3d316fdb	0.043319564
29	0x3d7c2031	0.061554138
30	0x3d1b193f	0.037865873
31	0x3e70d8ca	0.23520198
32	0xbd879eae	-0.066220626
33	0xbdfef4fa	-0.12449069
34	0xbe47bbe5	-0.1950527
35	0x3dd7a563	0.10529592
36	0x3e7838d7	0.24240433
37	0xbe52f9cc	-0.20603102
38	0xbdfc8ac1	-0.12331153
39	0x3d3ed870	0.04659313
40	0xbdaaa852	-0.08332886
41	0xbe30ab38	-0.17252815
42	0x3e2f8362	0.17139962
43	0xbc45c945	-0.012071912
44	0x3e6197e9	0.22030605
45	0x3e093be1	0.13401748
46	0x3d9563b4	0.072944075
47	0x3dcd4786	0.10023408
48	0xbeea5ace	-0.45772403
49	0xbd960f47	-0.07327133
50	0x3e370d89	0.17876257
51	0xbeafed69	-0.34360817
52	0xbe466f4a	-0.19378391
53	0xbe4fbb81	-0.20286371
54	0x3d1e5488	0.038654834
55	0xbd4ac8b0	-0.049507797
56	0xbd627b08	-0.055293113
57	0xbc3508c7	-0.011049456
58	0xbe106046	-0.14099225
59	0xbd867176	-0.0656461
60	0x3d285ca3	0.04110397
61	0xbd56f22b	-0.052477043
62	0x3c89109b	0.01673155
63	0x3dae999d	0.08525393
64	0xbd72396f	-0.059136804
65	0x3dfbfb28	0.12303764
66	0x3e2cf23d	0.16889282
67	0x3e29a377	0.16566263
68	0x3de4df9e	0.11175464
69	0x3d5d96c9	0.054098878
70	0x3e28693a	0.16446391
71	0x3e7d955c	0.24764007
72	0x3e599a41	0.2125025
73	0x3e9cee91	0.30650762
74	0x3e05981c	0.13046306
75	0x3e901907	0.28144094
76	0x3e62f95d	0.22165437
77	0x3d8a6434	0.067573935
78	0xbd720d05	-0.059094448
79	0x3e79a44e	0.24379084
80	0x3e990f06	0.29894274
81	0x3e10660b	0.14101426
82	0x3daa95fd	0.08329389
83	0x3e81f21a	0.2538002
84	0x3c867e17	0.016417546
85	0x3d54d8cb	0.051964562
86	0xbe19f66c	-0.15035409
87	0x3e313c90	0.17308259
88	0xbc6a9cc9	-0.014319607
89	0x3e2ef6eb	0.17086379
90	0xbd82eae4	-0.06392458
91	0x3e7e380d	0.24826069
92	0xbdddb13c	-0.108248204
93	0xbc8b6deb	-0.017020186
94	0x3cd89021	0.026435914
95	0x3e2bcf51	0.16778304
96	0xbe22f749	-0.15914644
97	0xbd06e19d	-0.032930005
98	0x3e2973af	0.16548036
99	0x3c2ac10a	0.010422001
100	0xbd9a5a53	-0.07536759
101	0xbd9b411f	-0.0758078
102	0xbd52c782	-0.051459797
103	0x3e01697f	0.126379
104	0x3e78b5b9	0.24288072
105	0x3dbab2d5	0.09116141
106	0x3e0215d5	0.12703641
107	0x3e9bc40e	0.30423015
108	0x3e010145	0.1259814
109	0xbd9d22ec	-0.076726764
110	0xbe48faf4	-0.19626981
111	0x3de98a43	0.114033245
112	0x3e64f6e8	0.22359812
113	0x3bdb8550	0.0066992417
114	0xbbfabcd0	-0.0076519027
115	0x3e8f08e0	0.2793646
116	0xbd5fa1ab	-0.054597538
117	0x3d22300e	0.03959661
118	0xbe2ee97c	-0.17081255
119	0x3db0f69f	0.08640789
120	0xbd27a81f	-0.040931817
121	0x3e1c912d	0.15289755
122	0xbd894c59	-0.06704015
123	0x3e969309	0.29409054
124	0xbb85cdfd	-0.0040833936
125	0x3e684a93	0.22684698
126	0x3e4f5fd7	0.20251404
127	0x3c83f8d5	0.016109863
128	0x3d716e74	0.058943227
129	0xbe0bfa8b	-0.13669793
130	0x3d8f2756	0.069899246
131	0x3c69b4ea	0.014264325
132	0x3da9d103	0.08291819
133	0x3d1dfafb	0.03856943
134	0x3d522484	0.051304355
135	0x3e686228	0.22693694
136	0x3de1ef3b	0.11031958
137	0x3e9677c1	0.2938824
138	0x3d62251a	0.055211164
139	0x3e2fcc97	0.17167889
140	0x3e0a4ec8	0.13506615
141	0x3b49f965	0.0030818817
142	0x3e135cfa	0.14390936
143	0x3e1c5d70	0.15270019
144	0x3e155c0e	0.14585897
145	0xbd9b5d54	-0.0758616
146	0x3d9c8ba9	0.076438256
147	0x3ef2615f	0.47339913
148	0x3dd18d14	0.10231987
149	0x3e0a13af	0.13484071
150	0x3df2bb7a	0.118521646
151	0x3e5aaf94	0.2135604
152	0x3e6950e8	0.2278477
153	0x3d7eebc7	0.062236574
154	0x3e491155	0.19635518
155	0x3e9004a4	0.2812854
156	0x3df056b8	0.1173529
157	0x3e0af129	0.13568558
158	0x3e276688	0.16347706
159	0x3e95a14d	0.29224625
160	0x3de7bbe2	0.11315133
161	0xbe276e97	-0.1635078
162	0x3e8c6fb9	0.27428988
163	0xbd963a80	-0.07335377
164	0x3e2fcac7	0.17167197
165	0x3e2a9355	0.16657765
166	0xbdd9276d	-0.10603223
167	0x3e538dcd	0.20659561
168	0x3d7cec9c	0.061749086
169	0x3d31716f	0.04332107
170	0xbd5dd556	-0.05415853
171	0x3e22a5fc	0.1588363
172	0x3e29a7cb	0.16567914
173	0x3d636dca	0.055524625
174	0x3c5cb8e8	0.013471819
175	0xbcaebce3	-0.021330303
176	0x3eae51d2	0.340468
177	0x3d7757e5	0.060386557
178	0x3e001ea3	0.12511687
179	0x3ec551ba	0.38538915
180	0x3dbffae4	0.093740255
181	0x3e5ec17d	0.21753497
182	0xbc801c8c	-0.015638612
183	0x3cea8adc	0.028630666
184	0x3d9b534b	0.07584246
185	0x3e394c6d	0.1809556
186	0xbd5ffcfc	-0.054684624
187	0x3e8bad92	0.2728086
188	0xbe74a771	-0.23891999
189	0x3e2f7040	0.17132664
190	0x3e8bf6b7	0.27336666
191	0x3dc3b2a0	0.095555544
192	0xbda0ac38	-0.07845348
193	0x3e10b9c7	0.14133368
194	0x3d283628	0.041067272
195	0xbd9ceb9d	-0.07662127
196	0x3c3f0c92	0.011660712
197	0x3e084782	0.13308528
198	0x3e126b3e	0.14298722
199	0xbd810c92	-0.06301226
200	0x3e8c6c06	0.27426165
201	0x3dde6a37	0.108601026
202	0x3e1b2519	0.1515087
203	0x3eabdedb	0.33568463
204	0x3da81993	0.08208003
205	0x3e2d5c27	0.16929685
206	0xbd7302be	-0.059328787
207	0x3d9df00e	0.077118024
208	0x3e09d5fc	0.13460535
209	0x3e54dde1	0.20787765
210	0x3e725d61	0.23668434
211	0x3e450b0b	0.19242494
212	0x3e7bfb00	0.24607468
213	0x3e9fd849	0.312197
214	0x3dbb9d7e	0.091608986
215	0x3e4c5924	0.1995588
216	0xbd63963c	-0.055563197
217	0x3e84447e	0.25833505
218	0x3daea1d0	0.08526957
219	0x3e9b1a64	0.30293572
220	0x3dac3cbd	0.084100224
221	0x3e02a3cd	0.12757798
222	0x3e680664	0.22658688
223	0x3e567c27	0.20945798
224	0x3dcd6f60	0.10031009
225	0xbe0e18cd	-0.13876648
226	0xbc88c67b	-0.016696205
227	0xbe066217	-0.13123356
228	0x3e2c2889	0.16812338
229	0xbd99a8d2	-0.07502903
230	0xbde43781	-0.11143399
231	0x3de61f7a	0.112364724
232	0x3e5f8c50	0.21830869
233	0x3e94b1b1	0.29041818
234	0x3e1a22cf	0.15052341
235	0x3e92da6f	0.28682277
236	0x3e817c84	0.2529031
237	0x3c870f8a	0.016486902
238	0x3c2b0fe8	0.010440804
239	0xbdf906e1	-0.12159515
240	0x3dde766d	0.10862432
241	0x3ddab6df	0.10679411
242	0x3c8a9ed3	0.016921436
243	0x3ee9bb1b	0.45650563
244	0xbdac45d8	-0.08411759
245	0x3eb17ce4	0.34665596
246	0xbd9eb7d7	-0.077499084
247	0x3d9d4209	0.07678611
248	0x3e3dce54	0.18535739
249	0x3e096bc4	0.13420016
250	0x3e0b6539	0.13612832
251	0x3e959ff6	0.29223603
252	0xbe57f253	-0.21088533
253	0x3b59ae40	0.0033215433
254	0x3e347c4b	0.17625539
255	0x3da4852c	0.08033213

bias f4 [64]
0	0x3e82c4e2	0.25540835
1	0x3c55fee2	0.013061257
2	0x3eabe784	0.3357507
3	0x3ea0c4a6	0.3140003
4	0x3e13a969	0.14420094
5	0x3e132de0	0.14372969
6	0x3e902249	0.28151157
7	0x3e8909c0	0.2676525
8	0x3db772e0	0.089574575
9	0x3e9536c7	0.29143354
10	0x3ec8379e	0.39104933
11	0xbd90b3d5	-0.0706555
12	0x3eaa7dbb	0.3329905
13	0x3e31d204	0.17365271
14	0x3e721043	0.23639016
15	0x3e51bfdf	0.2048335
16	0x3dba3fa3	0.09094169
17	0x3df52205	0.11969379
18	0xbe1e50f6	-0.15460572
19	0x3e2eac5c	0.17057937
20	0x3e0393a9	0.12849297
21	0x3e0b6f79	0.13616742
22	0x3e0f1c53	0.13975649
23	0xbdeab368	-0.1146
24	0x3db91f39	0.090391584
25	0x3eac500c	0.3365482
26	0x3e249a33	0.16074447
27	0x3e780aca	0.24222866
28	0x3e89bf0b	0.26903567
29	0x3e0fee39	0.14055718
30	0x3e1d81d4	0.15381557
31	0x3dfdf060	0.123993635
32	0x3e9e9a2a	0.30976993
33	0x3e8e7b61	0.27828506
34	0x3ec1edac	0.37876642
35	0x3eb948f3	0.36188468
36	0x3eb5bf2e	0.3549742
37	0xbdac7438	-0.084206045
38	0x3e824171	0.25440553
39	0x3df11184	0.11770919
40	0x3dc46c9e	0.095910296
41	0x3e1b9a8f	0.15195678
42	0x3d03d407	0.032184627
43	0x3e5efecb	0.21776883
44	0x3db0f25d	0.08639977
45	0x3e97d06c	0.296512
46	0x3e8d8d52	0.2764688
47	0xbd11a558	-0.035558075
48	0x3e6db7f6	0.23214707
49	0x3e3b9f53	0.18322496
50	0x3d9d3dd7	0.07677811
51	0xbe2c79c6	-0.16843328
52	0x3e9fbc0c	0.31198156
53	0x3e8df280	0.27724075
54	0x3d85ae7f	0.06527423
55	0x3e4fd5f3	0.20296459
56	0x3ebebd33	0.37253723
57	0x3d8753ac	0.06607756
58	0x3ebae584	0.36503232
59	0x3e8137ce	0.25237888
60	0x3e80b20d	0.25135842
61	0x3e742141	0.2384081
62	0x3dd2b2a2	0.10287978
63	0x3e2543e1	0.16139175

weight f4 [32, 64]
0	0x3c92109b	0.017830184
1	0xbd3b9fcc	-0.04580669
2	0xbe0ee792	-0.13955525
3	0x3d7d8c41	0.061901335
4	0x3d3d5568	0.046224028
5	0xbd0bbbed	-0.034114767
6	0x3d16357d	0.036672104
7	0x3daf3680	0.08555317
8	0x3cf267ef	0.029590575
9	0x3d3fcbd9	0.046825264
10	0xbda19196	-0.078890964
11	0xbd9f0577	-0.07764714
12	0xbe10c165	-0.14136274
13	0x3c213a31	0.009840534
14	0xbdfab3d1	-0.122413285
15	0xbdfeb1b2	-0.124362364
16	0xbd2a7ab1	-0.041620914
17	0xbe0600f1	-0.13086297
18	0xbdb07874	-0.086167246
19	0xbda3f1cf	-0.08005106
20	0xbd178538	-0.03699228
21	0x3cb45245	0.022011885
22	0x3cbd7fa7	0.023132158
23	0x3de5aa5f	0.11214136
24	0xbd9bb031	-0.07601965
25	0xbc7d1cda	-0.015448773
26	0xbdcb737d	-0.09934137
27	0xbda5ea4b	-0.081013285
28	0xbdb9817b	-0.090578996
29	0xbd4abb08	-0.049494773
30	0xbbc11406	-0.0058922796
31	0xbdc8e986	-0.09810166
32	0xbcdd75b1	-0.027033659
33	0x3d915ee5	0.07098178
34	0x3cc6edfb	0.0242834
35	0x3d2c2d7e	0.042035572
36	0x3da4785c	0.08030769
37	0xbd069bec	-0.032863542
38	0xbd9bd054	-0.07608095
39	0xbced1ff7	-0.028945906
40	0xbd422f3f	-0.04740834
41	0x3cde025b	0.027100733
42	0xbdec9581	-0.11551953
43	0xbdd82c73	-0.10555353
44	0x3c7657b2	0.015035557
45	0xbd835e5e	-0.064144835
46	0xbd812bd3	-0.06307187
47	0x3dcf0c65	0.10109786
48	0xbdcd7465	-0.10031966
49	0xbdbfc9e0	-0.093646765
50	0xbdc7f5aa	-0.097636536
51	0xbdb30f3c	-0.0874314
52	0xbd47b975	-0.04876085
53	0xbaef6b3b	-0.001826621
54	0xbe0dbaa9	-0.13840736
55	0x3da5f23b	0.081028424
56	0xbd93dcea	-0.072198704
57	0xbcecf9eb	-0.028927764
58	0xbcdea9aa	-0.027180512
59	0xbe15e68a	-0.14638725
60	0x3dc77b67	0.09740334
61	0xbe0a2f00	-0.13494492
62	0xbd82ea5e	-0.06392358
63	0x3dd5f9c5	0.104480304
64	0x3e42870b	0.18996827
65	0x3e6b7fb1	0.22997929
66	0x3e39496e	0.18094417
67	0x3e02dbc1	0.12779142
68	0x3d84c46f	0.06482779
69	0x3dbc186a	0.09184344
70	0x3e55467b	0.20827667
71	0x3dd828c1	0.10554648
72	0x3e8aaed1	0.270865
73	0x3e0a6787	0.13516055
74	0x3e5ab3fd	0.21357723
75	0xbdba188f	-0.090867154
76	0x3e1ab884	0.1510945
77	0x3cd085d6	0.025454443
78	0x3db1089c	0.0864422
79	0x3e382eb0	0.1798656
80	0x3d5e2ee2	0.05424393
81	0x3e59d8bf	0.21274088
82	0x3c50195e	0.0127013605
83	0x3e8d235a	0.27566034
84	0x3e536c31	0.2064674
85	0x3e2ddff9	0.1697997
86	0x3d8e22e3	0.06940248
87	0xbe9f23ad	-0.31081906
88	0x3dd7a611	0.105297215
89	0x3e7b1f24	0.24523598
90	0x3d4ead36	0.050458156
91	0x3e62ff9d	0.22167821
92	0x3e22ef9f	0.1591172
93	0x3e72a4d8	0.23695695
94	0x3eedb88f	0.4642987
95	0x3da5bb1f	0.08092331
96	0x3e7a3ae8	0.24436533
97	0x3e5dd44b	0.21663015
98	0x3e05a98c	0.13052958
99	0x3cfb064d	0.030642653
100	0x3dfb4530	0.12269056
101	0xbd2f886a	-0.042854704
102	0x3e51ff91	0.20507647
103	0x3e790058	0.24316537
104	0x3e10572a	0.1409575
105	0x3e81812e	0.2529387
106	0x3df83896	0.12120168
107	0x3d4e16d2	0.050314732
108	0x3e6b5db1	0.22984959
109	0x3e68f806	0.22750863
110	0x3e53b828	0.20675719
111	0xbd551aa6	-0.052027367
112	0x3e4077c0	0.18795681
113	0x3e2fad26	0.17155895
114	0x3e1a46af	0.15066026
115	0xbd837d5c	-0.06420395
116	0x3e1ea9e0	0.1549449
117	0x3e857deb	0.2607263
118	0x3e616608	0.22011578
119	0x3ec31e83	0.38109216
120	0x3e3ceb46	0.18449125
121	0x3e3704f5	0.17872985
122	0x3dc43983	0.09581282
123	0x3d839c66	0.06426315
124	0x3e6e8f5f	0.23296879
125	0x3ea06959	0.31330374
126	0x3e197dcc	0.14989394
127	0x3d7fa72a	0.06241528
128	0x3e1f4ae2	0.1555591
129	0x3e8bbfd8	0.27294803
130	0x3d43d5d0	0.04781133
131	0x3e824d4a	0.25449592
132	0x3e3b448c	0.18287867
133	0x3d4eeca0	0.050518632
134	0x3e3fdfe7	0.18737756
135	0x3e507b93	0.2035964
136	0x3dc06a16	0.09395234
137	0x3de42926	0.11140661
138	0x3e789012	0.24273708
139	0x3db0f552	0.08640541
140	0x3e2cb66e	0.16866466
141	0x3da18a81	0.07887746
142	0x3df4049c	0.11914942
143	0x3d7c17bd	0.061546076
144	0x3db6caab	0.089253746
145	0x3e7a0c0c	0.24418658
146	0x3dee4103	0.11633494
147	0x3de702d2	0.11279835
148	0x3e4cdcbb	0.20006077
149	0x3e1c170b	0.15243165
150	0x3e4fce6d	0.20293589
151	0xbddf04bc	-0.10889575
152	0x3e1c7a0a	0.15280929
153	0x3e17f501	0.14839555
154	0x3d8c8a1d	0.068622805
155	0x3e6b604d	0.22985955
156	0x3e7ef6b9	0.24898805
157	0x3e629c64	0.22129971
158	0x3ec4ae19	0.38414076
159	0x3e07d791	0.13265826
160	0x3e78224a	0.2423183
161	0x3e6db08f	0.23211883
162	0x3e719d80	0.23595238
163	0x3e2c2dd3	0.16814356
164	0x3dfa8d57	0.1223399
165	0x3dbc2513	0.09186759
166	0x3e6bc971	0.23026063
167	0x3dc77fda	0.097411826
168	0x3e6203c5	0.2207175
169	0x3da37a61	0.07982326
170	0x3cfa84d3	0.030580914
171	0x3ce1d79f	0.027568636
172	0x3e445bd6	0.19175658
173	0x3e3186c4	0.17336565
174	0x3e6076b7	0.21920286
175	0xbdbf3547	-0.09336334
176	0x3d86417c	0.06555459
177	0x3e0daf7d	0.13836475
178	0x3e2c8cd7	0.16850601
179	0x3b777440	0.00377585
180	0x3e2c2674	0.16811544
181	0x3e8038d8	0.25043368
182	0x3dc705d5	0.09717909
183	0x3ea0ed0e	0.31430858
184	0x3d823400	0.063575745
185	0x3d5c1f3d	0.05374073
186	0x3e0e34a2	0.13887265
187	0x3e2b70fb	0.16742317
188	0x3e806e99	0.2508438
189	0x3e23baa5	0.15989168
190	0x3dd0868b	0.10181912
191	0x3e243a2d	0.16037817
192	0xbdb8ce60	-0.09023738
193	0xbcfbfe18	-0.03076081
194	0xbd693393	-0.05693395
195	0xbcbeb87f	-0.023281334
196	0x3d54cbcd	0.051952172
197	0x3d7db483	0.061939728
198	0xbbc4602b	-0.0059929094
199	0xbd056e9a	-0.03257618
200	0xbdf2294d	-0.11824284
201	0xbd516aae	-0.05112713
202	0xbd96b7bd	-0.07359264
203	0x3d772950	0.060342133
204	0x3cceb30b	0.025231859
205	0x3d9ca208	0.076480925
206	0x3c9f02a9	0.019410448
207	0xbc991387	-0.01868607
208	0xbd2dc23c	-0.042421564
209	0x3da33937	0.07969897
210	0x3daac3de	0.0833814
211	0x3d2286e0	0.039679408
212	0xbd207fd7	-0.039184418
213	0x3da96861	0.08271862
214	0xbda0cd0d	-0.0785161
215	0xbdf1d8a4	-0.11808899
216	0x3cec41b4	0.028839923
217	0x3af49a9f	0.0018661803
218	0xbdc1f8e2	-0.09471299
219	0x37d2dc7c	2.5136622e-05
220	0xbc11631b	-0.008873726
221	0xbc3767a0	-0.01119414
222	0x3d834c20	0.06411004
223	0x3d4438d8	0.047905773
224	0xbddbbcf5	-0.107294
225	0xbd96836a	-0.07349284
226	0xbbec7880	-0.007216513
227	0xbd8fc454	-0.070198685
228	0xbe0267da	-0.12734929
229	0xbd2ceab4	-0.042216018
230	0x3db1802a	0.086670235
231	0xbdbd13d1	-0.09232295
232	0x3d77d98c	0.060510203
233	0x3d888da7	0.06667643
234	0x3bf05577	0.007334407
235	0xbd0dfa77	-0.03466269
236	0xbd2540d4	-0.040345028
237	0xba97e300	-0.0011588037
238	0xbd26b090	-0.040695727
239	0x3db3e634	0.08784142
240	0x3d801cd0	0.062554955
241	0xbd047b2a	-0.03234402
242	0xbc10855d	-0.008820859
243	0xbdab2f76	-0.08358662
244	0x3db400b5	0.08789197
245	0x3cc4af73	0.024009442
246	0x3a9f4cfd	0.0012153682
247	0xbc43e530	-0.011956498
248	0xbc3a7f01	-0.011382819
249	0x3dd750c7	0.10513454
250	0xbcc7afdf	-0.024375854
251	0x3dbe288b	0.09285077
252	0xbdebd060	-0.11514354
253	0x3cf308f0	0.029667348
254	0xbd1c204b	-0.038116734
255	0x3d83cd22	0.0643561

bias f4 [32]
0	0x3dc23e9a	0.094845966
1	0x3da55a71	0.08073891
2	0x3cea0125	0.028564999
3	0xbd79337e	-0.060840122
4	0xbd3ad57c	-0.04561375
5	0x3e1ce8f0	0.15323234
6	0x3e796ead	0.24358626
7	0xbe0556de	-0.13021418
8	0x3e336148	0.17517579
9	0x3d43d41f	0.047809716
10	0xbc7895e6	-0.015172457
11	0xbd8ebf1d	-0.06970046
12	0x3e1c9833	0.15292434
13	0x3daa5ca8	0.08318454
14	0x3db4160c	0.087932676
15	0x3d1e5b4f	0.038661297
16	0x3e0d56d1	0.13802649
17	0xbe0f8c84	-0.14018446
18	0x3e12b0f4	0.14325315
19	0xbde3b490	-0.11118424
20	0xbdcc657e	-0.099802956
21	0xbd4b2b55	-0.04960187
22	0x3dee1c5b	0.11626502
23	0xbdc49ec9	-0.09600598
24	0xbdfb3558	-0.12266034
25	0x3d9e3856	0.07725589
26	0xbd9f3dbe	-0.07775448
27	0x3d0c13f3	0.034198713
28	0xbd4e93e2	-0.050434
29	0x3dfc4733	0.12318268
30	0x3c701dbc	0.014655527
31	0x3e83e7ae	0.25762695

weight f4 [1, 32]
0	0xbe11b307	-0.1422845
1	0x3e91e1dd	0.28492633
2	0x3e8e34bb	0.27774605
3	0xbe273573	-0.16328983
4	0xbdeb6020	-0.11492944
5	0x3e87ffb3	0.2656227
6	0x3e8b5b5b	0.27218136
7	0xbe1f580d	-0.15560932
8	0x3e2fa377	0.171522
9	0xbd6dead8	-0.058085293
10	0xbd30ff45	-0.043212194
11	0xbdc91e62	-0.09820248
12	0x3e7c3ef9	0.24633397
13	0x3e72b970	0.23703551
14	0x3e6d1447	0.23152266
15	0x3eabae7e	0.33531564
16	0x3ea60c96	0.32431477
17	0xbe195605	-0.1497422
18	0x3e577dca	0.21044078
19	0xbd777ec6	-0.060423635
20	0xbd793d84	-0.06084968
21	0xbdeb19e6	-0.11479549
22	0x3e4484ce	0.19191286
23	0xbd4087d1	-0.047004525
24	0xbe03cb90	-0.12870622
25	0x3e1ed600	0.15511322
26	0x3d0775bc	0.033071265
27	0xbe1ae361	-0.151258
28	0xbde53711	-0.11192144
29	0x3e3bacb2	0.18327597
30	0xbddd0c6d	-0.10793386
31	0x3e8c8cec	0.27451265
