mlruns/520540750369773434/3329f5f86cb844549a675aa92197de34/artifacts/model/data/model.pth (torch, 558683 bytes, 19 tensors)

weight f4 [128, 14]
0	0xbee6e2e5	-0.45094982
1	0xbdbb4a5f	-0.091450445
2	0xbe471b5a	-0.19444028
3	0x3f270cfe	0.652542
4	0xbde7b8fe	-0.11314581
5	0x3e21eddf	0.15813397
6	0x3dc04fd6	0.093902275
7	0xbe269ef9	-0.16271581
8	0x3e5d2041	0.21594335
9	0x3ed0cf41	0.40783122
10	0x3e38b6dc	0.18038505
11	0xbe46cf2b	-0.19414966
12	0x3ec6fdaa	0.38865405
13	0x3e985841	0.29754832
14	0x3e1f08d5	0.15530713
15	0x3f0792f0	0.52958584
16	0xbeb207b1	-0.34771493
17	0x3ef19270	0.47182035
18	0x3c7f71da	0.015591109
19	0x3d2e4e41	0.042555097
20	0xbc067e98	-0.008208893
21	0xbca7f24f	-0.020501284
22	0x3d02e893	0.03196008
23	0xbd4e2e33	-0.050337028
24	0x3d90eb0a	0.0707608
25	0x3d18c5fc	0.037298188
26	0x3f6c3af6	0.9227747
27	0x3e2132cb	0.15742032
28	0xbe7aacf6	-0.24480042
29	0xbe1195ed	-0.14217348
30	0xbf13d2fd	-0.5774382
31	0xbcba8a05	-0.022770891
32	0x3f3d87a3	0.7403509
33	0xbe22df0f	-0.15905403
34	0xbe65efcf	-0.22454761
35	0x3cab90f2	0.020943139
36	0xbed1e394	-0.4099394
37	0xbd833e87	-0.064084105
38	0xbefab7b4	-0.4896828
39	0x3f7640d8	0.96192694
40	0x3eba87ea	0.3643182
41	0x3e428a29	0.18998016
42	0xbeb6bd6a	-0.35691386
43	0xbe2c3f65	-0.16821058
44	0xbe23b6f3	-0.15987758
45	0x3ecd495f	0.4009504
46	0x3ef6607c	0.48120487
47	0xbe895f0a	-0.26830322
48	0x3d418395	0.047244627
49	0x3e322493	0.17396764
50	0xbe9cdb95	-0.30636278
51	0x3f154cae	0.5832013
52	0x3ec7018d	0.3886837
53	0x3d892b86	0.066977546
54	0xbe89213f	-0.26783177
55	0x3e8742c5	0.2641813
56	0xbf07936a	-0.5295931
57	0xbdc3c9aa	-0.09559949
58	0xbf129942	-0.572651
59	0xbeca7566	-0.39542693
60	0xbee48eaa	-0.44640094
61	0xbbb4a29d	-0.005512549
62	0x3ca38563	0.019961065
63	0xbf0d7272	-0.55252755
64	0xbe511fe7	-0.20422326
65	0x3f81df3f	1.0146254
66	0x3e95f86b	0.2929109
67	0xbe623d61	-0.22093727
68	0x3ecd6b98	0.4012115
69	0x3d25dd66	0.040494345
70	0x3d80d54a	0.06290682
71	0xbeab8564	-0.33500206
72	0xbef64628	-0.481004
73	0x3de531b3	0.1119112
74	0xbe2510bd	-0.16119666
75	0xbf258db3	-0.6466934
76	0x3d8f7f12	0.070066586
77	0xbe09ccfa	-0.13457099
78	0x3e567e19	0.2094654
79	0xbde68134	-0.11255112
80	0xbe5138a5	-0.20431764
81	0xbc1dee95	-0.009639402
82	0xbe0cbbc4	-0.13743502
83	0xbeaacf92	-0.3336149
84	0x3f6379d9	0.888578
85	0xbe0642f8	-0.13111484
86	0x3f0274b0	0.509593
87	0xbee4d49b	-0.44693455
88	0x3ea8dec6	0.32982463
89	0x3e2b8dc7	0.16753303
90	0xbcba6b31	-0.022756191
91	0xbeafc40a	-0.34329253
92	0xbddbdba7	-0.10735255
93	0xbdceb208	-0.100925505
94	0x3f5bbf19	0.85838467
95	0xbeb627e2	-0.35577303
96	0x3e8e285f	0.27765176
97	0x3ebc536f	0.36782405
98	0xbe9d806e	-0.30762047
99	0xbde43214	-0.11142364
100	0x3e122396	0.14271387
101	0x3e2dfa75	0.16990073
102	0xbee3d420	-0.44497776
103	0xbe20f7d0	-0.15719533
104	0x3d992db4	0.0747942
105	0xbf0b0da7	-0.54317707
106	0x3c755ad4	0.014975268
107	0xbf040d61	-0.51582915
108	0x3e0142ff	0.12623213
109	0x3dd500f5	0.10400573
110	0xbfbcb2b5	-1.4742037
111	0xbe2b9036	-0.16754231
112	0xbefdb60c	-0.49552953
113	0xbeca7864	-0.39544976
114	0x3f4b58d5	0.7943242
115	0x3dad4b13	0.08461585
116	0xbe55f42e	-0.20893928
117	0x3e8aacb0	0.27084875
118	0xbe925c8d	-0.28586236
119	0xbe8ee637	-0.27910015
120	0xbf0fb744	-0.56139016
121	0x3eb9c186	0.3628046
122	0x3f227cd9	0.6347175
123	0x3e9b5163	0.3033553
124	0x3f2730a2	0.6530858
125	0xbc03bff4	-0.008041371
126	0xbe9abe20	-0.3022318
127	0xbf3e2ce9	-0.7428728
128	0x3e861c3c	0.26193416
129	0xbef14148	-0.47120118
130	0xbf1a3bd0	-0.60247517
131	0xbea5e865	-0.32403865
132	0x3ed3f50d	0.41397896
133	0x3e89ad34	0.26889956
134	0xbe7961b9	-0.24353684
135	0xbf28ab7c	-0.65886664
136	0xbe9e0dbe	-0.3086986
137	0xbe03fd88	-0.12889683
138	0xbe6f7236	-0.23383412
139	0xbee2b4ab	-0.44278464
140	0x3d5fcff0	0.054641664
141	0x3de6863c	0.11256072
142	0xbb3223d9	-0.0027182011
143	0xbe554390	-0.20826554
144	0xbcdbfaf7	-0.026853068
145	0xbf174211	-0.59085184
146	0x3e49db5f	0.1971259
147	0xbe94a531	-0.2903228
148	0x3db7a531	0.08967055
149	0xbf0575b6	-0.5213274
150	0x3e4748cf	0.19461368
151	0xbc501c30	-0.012702033
152	0x3e61a991	0.2203734
153	0xbeda81b8	-0.42677093
154	0x3eb43499	0.3519638
155	0x3e1cbe6d	0.15307017
156	0xbe54474f	-0.20730327
157	0x3e03c669	0.12868656
158	0xbe91a892	-0.2844892
159	0xbf25e55d	-0.64803106
160	0xbdc17eaa	-0.094479874
161	0x3e9c3074	0.30505717
162	0x3e63fde3	0.22264819
163	0x3e804554	0.25052893
164	0xbed76b25	-0.42073932
165	0x3cab401d	0.020904595
166	0x3c13da8e	0.0090242755
167	0x3f068cba	0.5255848
168	0x3eae2cfa	0.3401869
169	0xbf4e3f95	-0.8056577
170	0xbea51707	-0.3224413
171	0x3c11b0cc	0.008892249
172	0x3dd376dc	0.10325405
173	0xbe02f66f	-0.1278932
174	0x3c435d6c	0.011924129
175	0xbd840b6c	-0.06447491
176	0xbed1e88e	-0.40997738
177	0x3e42099a	0.18948975
178	0x3df05b1e	0.11736129
179	0x3c8cc3c8	0.0171832
180	0x3f0fee76	0.5622324
181	0x3dc66a82	0.096882835
182	0xbe8265ed	-0.25468388
183	0xbe0571f2	-0.13031748
184	0xbf1e2906	-0.61781347
185	0x3e76481c	0.24050945
186	0xbea125db	-0.31474194
187	0xbf10f5cd	-0.5662506
188	0xbea20551	-0.3164468
189	0xbef418e1	-0.4767523
190	0xbf02ddb8	-0.51119566
191	0xbc848146	-0.016174924
192	0x3cafc90d	0.021458173
193	0x3e2f89a9	0.17142357
194	0x3ebf3c26	0.37350577
195	0x3e8b5a22	0.27217203
196	0xbef048f8	-0.4693067
197	0x3f47ccf4	0.7804711
198	0x3e852cb6	0.26010674
199	0x3ee03109	0.4378741
200	0xbf0fa33c	-0.5610845
201	0x3eee437b	0.4653586
202	0xbe30c934	-0.17264253
203	0x3ea1ccf4	0.3160168
204	0x3e9d5e73	0.30736122
205	0xbebd2831	-0.36944726
206	0xbdfea2a1	-0.12433363
207	0x3f8b862f	1.0900325
208	0xbdc2391b	-0.09483548
209	0xbea9a419	-0.3313301
210	0x3e0fa715	0.1402858
211	0xbd949303	-0.07254603
212	0x3dc3a7c3	0.095534824
213	0x3f05c057	0.5224661
214	0x3f0394cf	0.5139894
215	0xbe0284be	-0.1274595
216	0xbf2c56c5	-0.673199
217	0xbe162983	-0.14664273
218	0xbf2dfedf	-0.6796703
219	0x3f31cd2e	0.69453704
220	0x3ebd0c48	0.36923432
221	0x3f10bab9	0.56534916
222	0x3d93f78b	0.072249494
223	0x3dc5f609	0.09666068
224	0x3e38001d	0.17968793
225	0x3f4bc795	0.79601413
226	0x3f115ed6	0.56785333
227	0xbdb95a71	-0.090504535
228	0x3f06d1a7	0.52663654
229	0x3ebaa3ae	0.36453003
230	0xbee7efab	-0.4530004
231	0xbf284ccb	-0.65742177
232	0xbeb9a03f	-0.3625507
233	0x3c312c2c	0.010813754
234	0x3d9576cd	0.0729805
235	0x3d831090	0.063996434
236	0xbf242b51	-0.64128596
237	0x3e13a84b	0.14419667
238	0x3e4e88d3	0.20169382
239	0x3eea9358	0.4581554
240	0xbeeafc88	-0.4589579
241	0xbe790c40	-0.24321079
242	0x3dccb486	0.099953696
243	0xbd701bd0	-0.058620274
244	0x3dd72a0d	0.105060674
245	0xbf6edda0	-0.9330692
246	0x3d1358ef	0.035973486
247	0x3b68a6a7	0.0035499723
248	0xbe95390d	-0.2914509
249	0x3e475218	0.1946491
250	0x3ebd81d0	0.37013102
251	0xbeb9512a	-0.36194736
252	0xbf126932	-0.57191765
253	0xbf0f8ead	-0.5607708
254	0x3ef090d8	0.46985507
255	0x3f5f7876	0.87293184

bias f4 [128]
0	0xb813f863	-3.527886e-05
1	0xba630b40	-0.0008661039
2	0x394c4759	0.00019481535
3	0x39ba0dd2	0.00035486982
4	0x3abe1923	0.0014503341
5	0xbb175c70	-0.0023095869
6	0x3907f697	0.00012966465
7	0xb9946cd8	-0.00028309855
8	0x3aa710e4	0.0012746123
9	0xba1220e0	-0.0005574357
10	0x38cf0c81	9.872858e-05
11	0xb9f89048	-0.00047409744
12	0xba9f3f3d	-0.0012149584
13	0x39b27c98	0.00034043635
14	0x3a733639	0.0009277794
15	0x38b161b9	8.45822e-05
16	0x37bcb4b3	2.2495491e-05
17	0xbaa825b9	-0.0012828625
18	0xbb0edb62	-0.0021798243
19	0xb962d657	-0.00021632887
20	0x399b74b6	0.0002965086
21	0xb9921fa5	-0.00027870867
22	0xb81a157d	-3.6736474e-05
23	0x3a0cbe02	0.00053688895
24	0xb7e249e9	-2.6975717e-05
25	0x39a30c45	0.00031098924
26	0x3b3df791	0.0028986672
27	0xba5728c0	-0.00082076713
28	0xba481131	-0.0007631956
29	0x358064a4	9.566033e-07
30	0x38f8547b	0.00011841297
31	0x3909716e	0.00013107594
32	0xba8edd4d	-0.0010899693
33	0x388bef7d	6.672645e-05
34	0xb9e76b0b	-0.00044139507
35	0xba1580c9	-0.00057030894
36	0xb9b091d5	-0.0003367799
37	0x38990a65	7.297545e-05
38	0xba09201e	-0.0005230921
39	0x3a8af517	0.0010601607
40	0xbb2f1f7d	-0.002672165
41	0x3a24396b	0.00062646595
42	0x39c451e9	0.0003744506
43	0xba0080de	-0.0004902015
44	0x3a17405e	0.00057697843
45	0xba0cd657	-0.00053725153
46	0x39f3800e	0.0004644398
47	0x391a35ed	0.00014706673
48	0xb8ae13f7	-8.300685e-05
49	0x39f70f13	0.00047122742
50	0x3a6197a2	0.0008605664
51	0xba47767c	-0.0007608903
52	0x3b3151cf	0.0027056818
53	0x3a03ce1e	0.0005027967
54	0x3a39f8da	0.0007094272
55	0xb84defbf	-4.909909e-05
56	0xb9c7205b	-0.00037980344
57	0x394d8a81	0.0001960192
58	0x3a84ac5e	0.001012217
59	0x39d21c29	0.00040075302
60	0x39b760d0	0.0003497661
61	0x378dfa59	1.6925087e-05
62	0x39508b3b	0.00019888293
63	0x3a60db04	0.0008577558
64	0x3b19aaed	0.0023447827
65	0x3b250239	0.0025178327
66	0x3a49d5e8	0.0007699416
67	0xba56f72a	-0.00082002825
68	0x3a4987fc	0.0007687805
69	0xba06551e	-0.0005124378
70	0x3a376c57	0.000699704
71	0xba45eff4	-0.00075507094
72	0xba672c3b	-0.00088185415
73	0xb8bdb0b1	-9.0451336e-05
74	0xb99790d8	-0.0002890888
75	0xb9e3f8c4	-0.0004348216
76	0x39a4fffa	0.00031471235
77	0xba841f97	-0.0010080215
78	0x3a5ee81d	0.00085032155
79	0xba7b58d2	-0.00095881254
80	0x39bc2173	0.00035883076
81	0x38140c22	3.529725e-05
82	0xb8ffa48c	-0.00012189997
83	0xb9e58fac	-0.00043785328
84	0xb9cd0dba	-0.00039110874
85	0x39755b25	0.00023398975
86	0x3a0f9202	0.0005476774
87	0x39b915ea	0.00035302277
88	0x39b9e4c5	0.00035456396
89	0xb9079a25	-0.00012932027
90	0xb95de266	-0.00021160542
91	0xb9ebac29	-0.00044950962
92	0x39833e17	0.00025032528
93	0xb9a49afc	-0.0003139599
94	0xb94ae65e	-0.0001935004
95	0x39799aca	0.00023804154
96	0x3aae169d	0.0013281886
97	0xb94c75e3	-0.00019498872
98	0x39828f9d	0.00024902532
99	0xb91a435d	-0.00014711679
100	0xb99788a7	-0.00028902778
101	0x3927f34e	0.00016016999
102	0x3a047107	0.0005052243
103	0xb8895b2e	-6.5496526e-05
104	0xba8b4fd3	-0.0010628648
105	0xb94a6af2	-0.00019304061
106	0x39c385bc	0.00037292938
107	0xba1081b3	-0.0005512491
108	0xba89178d	-0.0010459289
109	0xb909e58c	-0.00013150851
110	0xba8f14b1	-0.0010916201
111	0x392640fd	0.00015855204
112	0x39ad11b0	0.0003301031
113	0x3934df4c	0.00017249322
114	0xb983eb3d	-0.00025161533
115	0x3913aada	0.0001408266
116	0xba6e4108	-0.000908867
117	0xb932f3ee	-0.00017066274
118	0x3a1be23b	0.0005946492
119	0xb7fde754	-3.026767e-05
120	0xb8c155ce	-9.2189395e-05
121	0x3a7c3626	0.0009621106
122	0xba2c02e7	-0.0006561712
123	0x39930396	0.00028040697
124	0x3946f107	0.00018972541
125	0x396df594	0.00022693566
126	0xb99e61ac	-0.0003020888
127	0xb8f470e6	-0.000116558556

weight f4 [128]
0	0x3f8e6f70	1.1127758
1	0x3f6deb0f	0.92936796
2	0x3f767bfa	0.96282923
3	0x3f881c91	1.0633718
4	0x3f863569	1.048505
5	0x3f7afe0a	0.9804388
6	0x3f61d032	0.88208306
7	0x3f920cdd	1.1410176
8	0x3f6f817b	0.93556947
9	0x3f7ea1f0	0.99465847
10	0x3f822bff	1.0169677
11	0x3f7d998c	0.9906242
12	0x3f771860	0.9652157
13	0x3f8131b7	1.0093297
14	0x3f5b61a3	0.85695857
15	0x3f65a585	0.8970569
16	0x3f6ea40c	0.93219066
17	0x3f837bd7	1.0272168
18	0x3f834bd9	1.0257522
19	0x3f795fec	0.9741199
20	0x3f771a86	0.96524847
21	0x3f811e09	1.0087291
22	0x3f7bf673	0.98422927
23	0x3f65e6c4	0.89805245
24	0x3f807afc	1.0037532
25	0x3f8ae389	1.0850688
26	0x3f8078a8	1.0036821
27	0x3f6de3c0	0.92925644
28	0x3f7714f0	0.96516323
29	0x3f87537f	1.0572356
30	0x3f784e1f	0.96994203
31	0x3f899534	1.0748658
32	0x3f826f25	1.0190169
33	0x3f707fb3	0.93944854
34	0x3f64219e	0.89113796
35	0x3f748bac	0.9552562
36	0x3f83e9a4	1.0305676
37	0x3f88478a	1.0646832
38	0x3f75aad6	0.959638
39	0x3f7f3ae6	0.99699247
40	0x3f737634	0.9510224
41	0x3f78472a	0.9698359
42	0x3f6dfe4c	0.9296615
43	0x3f8fb645	1.1227499
44	0x3f8a210a	1.0791333
45	0x3f814f8e	1.0102403
46	0x3f6d4d23	0.92695826
47	0x3f8278a9	1.0193073
48	0x3f848722	1.0353739
49	0x3f81bc4b	1.0135587
50	0x3f7bc844	0.98352456
51	0x3f74922c	0.9553554
52	0x3f835236	1.0259464
53	0x3f83c6c3	1.0295032
54	0x3f81a226	1.0127609
55	0x3f7845b6	0.9698137
56	0x3f8f7011	1.1206075
57	0x3f83f0e8	1.0307894
58	0x3f845267	1.0337647
59	0x3f846a2c	1.0344901
60	0x3f7779d4	0.9667027
61	0x3f73fb7f	0.9530563
62	0x3f7314bf	0.9495353
63	0x3f8f6d76	1.120528
64	0x3f7acd70	0.9796972
65	0x3f849e6d	1.0360848
66	0x3f821f78	1.0165854
67	0x3f8b4e0c	1.0883193
68	0x3f6561fe	0.8960265
69	0x3f8a3d18	1.0799894
70	0x3f7d2b0e	0.9889382
71	0x3f816b29	1.0110828
72	0x3f86b636	1.0524356
73	0x3f86145b	1.0474962
74	0x3f8647d4	1.049067
75	0x3f85e1f3	1.0459579
76	0x3f749528	0.95540094
77	0x3f78a309	0.9712377
78	0x3f774644	0.9659159
79	0x3f840c54	1.0316262
80	0x3f863364	1.0484433
81	0x3f72e942	0.94887173
82	0x3f842dbd	1.0326458
83	0x3f741637	0.953464
84	0x3f881eb5	1.0634371
85	0x3f8d887a	1.1057274
86	0x3f77b826	0.96765363
87	0x3f8d209e	1.1025579
88	0x3f7c5664	0.9856932
89	0x3f792e1a	0.9733597
90	0x3f832b94	1.0247674
91	0x3f68b1b0	0.9089613
92	0x3f87a0ca	1.0595944
93	0x3f83ed4a	1.030679
94	0x3f77cecf	0.9679994
95	0x3f66dcc5	0.9018062
96	0x3f73d34d	0.95244294
97	0x3f59772d	0.8494747
98	0x3f8dec04	1.1087651
99	0x3f7b16d9	0.9808174
100	0x3f80b20d	1.0054337
101	0x3f616464	0.8804381
102	0x3f7a3857	0.9774222
103	0x3f6d4b57	0.92693084
104	0x3f69c57d	0.9131697
105	0x3f7ff825	0.99988014
106	0x3f898b7c	1.0745692
107	0x3f80eafc	1.0071712
108	0x3f99e857	1.202403
109	0x3f808da6	1.0043228
110	0x3f8dbe92	1.1073782
111	0x3f855f64	1.0419736
112	0x3f8271e0	1.0191002
113	0x3f747aac	0.9549968
114	0x3f839094	1.0278497
115	0x3f8994df	1.0748557
116	0x3f731856	0.9495901
117	0x3f6e43b5	0.9307206
118	0x3f715f5e	0.94286144
119	0x3f757335	0.95878917
120	0x3f870a92	1.0550101
121	0x3f8097bc	1.0046306
122	0x3f7ecd0c	0.99531627
123	0x3f864189	1.048875
124	0x3f8016c8	1.0006952
125	0x3f87f583	1.0621799
126	0x3f81acd2	1.0130866
127	0x3f7e0a2b	0.99234265

bias f4 [128]
0	0x3e667443	0.22505288
1	0x3c7190ef	0.0147440275
2	0x3d84dd37	0.06487506
3	0x3dd3fb3d	0.10350654
4	0x3d3a3ea6	0.045469902
5	0xbc91721c	-0.017754607
6	0xbd247d12	-0.04015834
7	0xbe168312	-0.14698437
8	0x3d65bc43	0.056087743
9	0xbdb687de	-0.08912633
10	0xbcacfc46	-0.021116387
11	0xbd4254db	-0.047444206
12	0xbcde0cbf	-0.027105687
13	0xbd17d157	-0.037064876
14	0x3db999cf	0.0906254
15	0x3cd537cb	0.02602758
16	0x3cdb9942	0.026806477
17	0x3bc85d8f	0.0061146687
18	0x3c2c9c44	0.0105353035
19	0x3b2ad7a7	0.002606848
20	0xbc3813c8	-0.011235185
21	0x3d16a634	0.036779597
22	0x3d65d466	0.056110762
23	0xbcac7218	-0.021050498
24	0xbd53a15e	-0.051667564
25	0xbd5e0507	-0.054204013
26	0x3d0809f9	0.033212636
27	0x3d5c821f	0.05383503
28	0xbc1f0a9a	-0.009707117
29	0xbd48415e	-0.048890464
30	0xbcd1ecdb	-0.025625637
31	0x3c216ede	0.009853093
32	0x3e080e28	0.1328665
33	0xbd17be37	-0.037046637
34	0x3d4829ba	0.04886792
35	0xbd04aa5b	-0.032389026
36	0xbca9ea4e	-0.020741608
37	0x3d65a7e4	0.056068316
38	0xbc9d1770	-0.019176215
39	0x3d9d09db	0.076678954
40	0x3c92be62	0.017913047
41	0xbaf8c3e1	-0.0018979275
42	0x3d1d434c	0.038394257
43	0xbd0cf330	-0.03441161
44	0x3e08f969	0.13376392
45	0xbcabd74a	-0.020976681
46	0xbd518871	-0.05115551
47	0xbcaf4882	-0.02139688
48	0x3c833030	0.016014189
49	0x3dc8d067	0.098053746
50	0x3d3703c2	0.044681318
51	0x3d1d667d	0.03842782
52	0x3d78e65a	0.060766555
53	0xbd8e8e99	-0.06960792
54	0x3dd0bb49	0.10191972
55	0xbac7cae1	-0.0015242958
56	0xbdfb638a	-0.12274845
57	0xbcaf94cf	-0.021433262
58	0x3d94c365	0.07263831
59	0x3d757aad	0.059931446
60	0xbd9c416e	-0.07629667
61	0xbcc23f9f	-0.023711978
62	0x3d111a98	0.035425752
63	0xbdc97920	-0.09837556
64	0x3cb5ff1a	0.022216368
65	0xba72ca93	-0.00092617533
66	0xbcca81db	-0.024720123
67	0x3e0dc5c2	0.1384497
68	0xbd7f76c4	-0.062369123
69	0xbcab638c	-0.020921491
70	0x3cff3d2a	0.031157095
71	0xbbbf9fbf	-0.0058479006
72	0xbd3d1ffd	-0.046173085
73	0x3d34e693	0.044165205
74	0xbba876b3	-0.005141103
75	0xbce578f1	-0.02801177
76	0x3db98005	0.09057621
77	0xbd2b549e	-0.041828744
78	0xbcbc260f	-0.022967367
79	0xbc4e1886	-0.012579089
80	0xbd8afec7	-0.06786876
81	0x3d81c717	0.063368015
82	0xbdbfa2c2	-0.093572155
83	0x3c043e97	0.008071563
84	0x3dca0629	0.09864456
85	0xbcee80c0	-0.029114127
86	0x3d11b04a	0.035568513
87	0x3ca57652	0.020198021
88	0xbce0c81c	-0.02743917
89	0x3d399014	0.04530342
90	0x3e4e109c	0.20123523
91	0xbbd3a6ff	-0.0064591165
92	0xbc80b032	-0.015709016
93	0x3d133b43	0.03594519
94	0x3bf51dd6	0.0074803634
95	0x3c95f56f	0.018305508
96	0xbcf03619	-0.02932267
97	0xbc9d128d	-0.019173885
98	0xbd48d9b0	-0.049035728
99	0xbb987a12	-0.004653224
100	0x3d2384b1	0.039921466
101	0x3c86dfdf	0.016464172
102	0xbce08b72	-0.027410243
103	0xbd6ff9a7	-0.058587696
104	0x3cc20b11	0.023686917
105	0xbdb597bc	-0.08866832
106	0x3de6a3f3	0.112617396
107	0x3c814abe	0.01578271
108	0x3bb626b1	0.0055588116
109	0x3d93522e	0.07193409
110	0xbdba4a1e	-0.09096168
111	0xbd612b79	-0.0549731
112	0xbd9de8cb	-0.07710417
113	0xbcdb1622	-0.026743952
114	0xbd080c3f	-0.033214804
115	0x3cb6f4b4	0.02233348
116	0xbd350864	-0.044197455
117	0x3a15e5c0	0.00057181343
118	0x3d90c45c	0.070687026
119	0xbc377f04	-0.0111997165
120	0xb9e5c582	-0.00043825438
121	0x3ce2a7d2	0.027667914
122	0xbca965e3	-0.020678466
123	0xbd8bd08a	-0.06826885
124	0xbb1522f9	-0.002275644
125	0xbc745271	-0.014912234
126	0x3e0275ed	0.12740298
127	0x3cde2cb9	0.027120935

running_mean f4 [128]
0	0xbd67bed1	-0.05657846
1	0x3e8b7cce	0.27243656
2	0xbe14bc41	-0.14524938
3	0x3d9e00d8	0.07715005
4	0xbe88dbec	-0.26730287
5	0xbf0a0ba9	-0.5392404
6	0x3f1fc67d	0.62412244
7	0xbd2c9eab	-0.042143505
8	0x3eb78fc9	0.35851887
9	0xbf2bdcf2	-0.6713401
10	0xbcce54ec	-0.025186978
11	0x3dd6aa96	0.104817554
12	0xbec25453	-0.3795496
13	0xbe1dcdee	-0.15410587
14	0x3f15de93	0.58542746
15	0x3ec911ac	0.39271295
16	0x3f3b461f	0.7315387
17	0xbdcac95d	-0.09901688
18	0xbe0ab9d0	-0.13547444
19	0x3d152c8e	0.036419444
20	0x3d74d591	0.059773985
21	0x3e07458f	0.13210128
22	0x3ead8864	0.3389312
23	0xbd081606	-0.03322413
24	0x3d6fb43b	0.05852149
25	0x3e3e0da3	0.1855989
26	0xbc9afc3c	-0.018919103
27	0x3f031967	0.51210636
28	0x3ecf0dcd	0.40440217
29	0xbe8a2e08	-0.26988244
30	0xbf019ada	-0.5062691
31	0x3df64139	0.12024159
32	0x3e8c5c67	0.27414247
33	0x3eb374ea	0.35050136
34	0x3ee7de1e	0.4528665
35	0x3f099a08	0.5375066
36	0xbd91c145	-0.07116941
37	0x3e493e49	0.19652666
38	0xbe1d5029	-0.1536261
39	0xbdbda25c	-0.09259483
40	0xbe84bcec	-0.25925386
41	0xbe0c489c	-0.13699573
42	0xbeb2ab14	-0.34896147
43	0xbd903160	-0.070406675
44	0xbf30cf8a	-0.6906668
45	0xbe9dcfa3	-0.30822477
46	0xbe972c95	-0.295262
47	0xbe03900f	-0.12847923
48	0xbe9e023e	-0.30861086
49	0x3d68719f	0.056748983
50	0xbe5cd5ed	-0.21565981
51	0x3e83e42e	0.25760025
52	0xbdf71c45	-0.12065939
53	0xbd8f960e	-0.070110425
54	0xbf25c560	-0.64754295
55	0xbdebd890	-0.115159154
56	0x3e13d690	0.14437318
57	0x3d9367db	0.07197543
58	0x3e1a278d	0.1505415
59	0xbd0665ad	-0.03281181
60	0xbe82bbef	-0.25534007
61	0xbeb99515	-0.36246553
62	0x3f14f0e2	0.5818006
63	0xbec324bc	-0.38113964
64	0xbe90311a	-0.28162462
65	0xbdc6c885	-0.09706215
66	0x3d41e28a	0.047335185
67	0xbbc1ef82	-0.005918444
68	0x3f49cf78	0.788322
69	0x3ee81405	0.45327774
70	0x3d72f7da	0.0593184
71	0x3e167e03	0.14696507
72	0x3e17ac4e	0.14811823
73	0xbe662a40	-0.22477055
74	0x3ecc0749	0.39849308
75	0x3e59091f	0.21194886
76	0xbe948e5f	-0.2901487
77	0xbe9a613a	-0.30152303
78	0xbedaa23f	-0.4270191
79	0xbe9d2d90	-0.30698824
80	0x3e86d79c	0.26336372
81	0x3eab0b49	0.33407047
82	0xbf24d3b7	-0.6438555
83	0x3e0be510	0.13661599
84	0xbe8fcf93	-0.28088054
85	0x3f0bc65d	0.54599553
86	0x3f25882a	0.64660895
87	0xbe9e0dcd	-0.30869904
88	0x3e09e7ce	0.13467333
89	0xbdc9316a	-0.09823878
90	0xbefbb836	-0.4916398
91	0xbc9baee7	-0.019004298
92	0x3ee2b8fa	0.4428175
93	0x3e59b075	0.2125872
94	0x3e81d842	0.25360304
95	0xbe256a54	-0.16153842
96	0xbde53221	-0.11191202
97	0xbd9037f7	-0.070419244
98	0xbe4a2820	-0.19741869
99	0xbe89977f	-0.26873395
100	0x3ecc38ac	0.39886987
101	0xbf0cd768	-0.55016184
102	0x3eca6869	0.39532784
103	0xbeb4cde2	-0.35313326
104	0x3d93961f	0.07206368
105	0x3da70182	0.081545845
106	0xbe4a7b82	-0.19773677
107	0xbebc5d49	-0.3678992
108	0x3ea3c874	0.3198887
109	0xbe263bd9	-0.16233768
110	0x3c1c3527	0.009534157
111	0x3eb27239	0.3485277
112	0xbe5fa497	-0.2184013
113	0xbdb65d42	-0.08904506
114	0x3f311436	0.69171464
115	0xbf166795	-0.58751804
116	0x3e39db5e	0.18150088
117	0xbe35eb34	-0.17765504
118	0xbda407f2	-0.08009328
119	0xbe5fb3af	-0.21845888
120	0x3d5cce0f	0.05390745
121	0xbe4d7afb	-0.20066445
122	0x3dfd1b04	0.123586684
123	0x3e6fc8a4	0.23416382
124	0xbeab4eac	-0.3345846
125	0x3eeb5818	0.45965648
126	0xbf0ac6ef	-0.542098
127	0xbe8a5eb9	-0.27025393

running_var f4 [128]
0	0x3efed1de	0.4976949
1	0x3e99f7c0	0.3007183
2	0x3f1f244c	0.6216476
3	0x3f96c449	1.1778651
4	0x3f51524e	0.8176621
5	0x3f085a65	0.5326293
6	0x3f135747	0.5755505
7	0x3fb0b2bb	1.3804544
8	0x3f4619d1	0.7738314
9	0x3fbc86ba	1.4728615
10	0x3f41005e	0.75391185
11	0x3f96942a	1.1763966
12	0x3e5bfcfe	0.21483228
13	0x3ff72889	1.9309245
14	0x3f066124	0.52491975
15	0x3fa59c8d	1.29384
16	0x3fada9d6	1.3567455
17	0x3f44d578	0.7688823
18	0x3fb39911	1.4031087
19	0x3f9623e4	1.1729703
20	0x3f770722	0.9649526
21	0x3f5ba8f8	0.858047
22	0x403ce5dc	2.9515295
23	0x3e9cdb23	0.30635938
24	0x3fdbbf3c	1.7167735
25	0x401dc857	2.4653528
26	0x3e1f60b3	0.15564232
27	0x3f0fcd76	0.56172884
28	0x3f7eb9ff	0.9950256
29	0x3f83428b	1.0254682
30	0x3f9b19f5	1.2117296
31	0x3fe1c300	1.7637634
32	0x3f8443ae	1.0333154
33	0x3eb9d88c	0.36298025
34	0x3f213052	0.62964356
35	0x3f83ad1f	1.0287207
36	0x3f9f5434	1.2447572
37	0x3f8d54d1	1.1041509
38	0x3fd6b4b2	1.6773894
39	0x3f88421b	1.0645174
40	0x3eb80904	0.35944378
41	0x3f884df3	1.0648788
42	0x3f5181c1	0.81838614
43	0x3ff3165e	1.8991201
44	0x401a7855	2.4135945
45	0x3f2faa6e	0.6861943
46	0x3f4b5a46	0.7943462
47	0x3fa462c8	1.2842646
48	0x408256f0	4.0731125
49	0x3fcbc7c2	1.5920336
50	0x3f758e28	0.9592004
51	0x3f2b05d1	0.6680575
52	0x3f03e708	0.515244
53	0x3f4cc72e	0.79991424
54	0x3f932be7	1.1497773
55	0x3f960e02	1.1723025
56	0x3f3a97be	0.7288779
57	0x3feb2969	1.8372012
58	0x3ee2b91b	0.4428185
59	0x3f29826b	0.6621463
60	0x3fda178c	1.7038436
61	0x3faaf276	1.3355243
62	0x4011f7b5	2.2807438
63	0x407568ff	3.8345335
64	0x3f0e4121	0.5556813
65	0x3ef0def5	0.47045103
66	0x3f95db7b	1.1707605
67	0x402b321d	2.6749337
68	0x3f593a5a	0.8485466
69	0x3fa1e6bb	1.2648538
70	0x3fda2c39	1.7044746
71	0x3f52b7c5	0.8231166
72	0x3fe70441	1.8048173
73	0x404432c9	3.0655997
74	0x3f9e7291	1.2378713
75	0x3fddfe99	1.7343322
76	0x3fb4d38c	1.4127059
77	0x3f8bc0d8	1.0918226
78	0x3f4bb489	0.7957235
79	0x3ff5ab13	1.9192833
80	0x3f2c2dc2	0.6725732
81	0x3f3c336c	0.73515964
82	0x40915de2	4.5427103
83	0x3fbb1094	1.4614434
84	0x3fa3305a	1.2749131
85	0x40023c3d	2.0349267
86	0x4007a6bd	2.119552
87	0x401893ee	2.384029
88	0x3ef367a9	0.47540024
89	0x3f78b01d	0.9714373
90	0x404c3db4	3.191266
91	0x3eed5a08	0.4635775
92	0x4002805b	2.0390842
93	0x3fa9d8e5	1.3269316
94	0x4025ce09	2.5907004
95	0x3f6209de	0.88296306
96	0x3ea37be4	0.3193046
97	0x3fb1297a	1.3840783
98	0x3fd2b2a8	1.6460772
99	0x3f1bd7e5	0.60876304
100	0x3f9c0cb5	1.2191378
101	0x3e9fe3e9	0.3122857
102	0x3f5a3bed	0.8524769
103	0x3f972f44	1.1811299
104	0x3ecac647	0.396044
105	0x3e84a9f7	0.25910923
106	0x3f833d42	1.0253069
107	0x3f5196b6	0.8187059
108	0x3fbbe165	1.467816
109	0x401478f0	2.3198814
110	0x3ee79f08	0.4523852
111	0x400fd2d1	2.2472422
112	0x3fae6d4b	1.3627104
113	0x3f87a3bd	1.0596844
114	0x3fa69c92	1.3016531
115	0x408b9fb3	4.3632445
116	0x3ebb5aad	0.36592618
117	0x3f92ce7e	1.1469266
118	0x3fb6bcde	1.4276388
119	0x3e0f5be5	0.13999899
120	0x3fc442df	1.5332907
121	0x3f83887a	1.0276024
122	0x4031c4af	2.7776296
123	0x404a7cd4	3.163869
124	0x3fbb67a3	1.4641002
125	0x3fe7171d	1.8053929
126	0x3fb66fc2	1.4252856
127	0x3f20ef8e	0.6286553

weight f4 [512, 128]
0	0x3bee6c22	0.007276074
1	0xbd085f44	-0.033293977
2	0x3d56df0c	0.052458808
3	0x3b9a90ff	0.004716992
4	0x3c8edda6	0.017439675
5	0xbe13787a	-0.14401427
6	0xbd4372c4	-0.04771687
7	0x3e6ceb6c	0.23136681
8	0xbd5f1e9d	-0.054472554
9	0x3d9a887a	0.07545562
10	0x3e3ca640	0.18422794
11	0x3c8f8ae8	0.01752229
12	0xbdd5fa4a	-0.104481295
13	0x3e1999c1	0.15000059
14	0xbdc9a231	-0.09845389
15	0xbe3dd296	-0.18537363
16	0x3d197f37	0.037474837
17	0xbe88961f	-0.26677033
18	0xbe3ad7b7	-0.18246351
19	0xbd70cf09	-0.058791194
20	0x3e846bfb	0.25863633
21	0x3e3a03a7	0.18165456
22	0x3e5994a4	0.21248108
23	0x3de91b77	0.11382192
24	0x3da687f0	0.08131397
25	0x3cf37d78	0.029722914
26	0xbe0d1b34	-0.13779908
27	0xbb9b771f	-0.004744425
28	0x3e31dedb	0.17370169
29	0xbb0b3cec	-0.002124603
30	0x3e81e321	0.25368598
31	0x3b662a8e	0.003512058
32	0x3d51766d	0.05113833
33	0xbda9a194	-0.08282772
34	0x3e70ef13	0.235287
35	0x3e2c8613	0.1684802
36	0x3d18a85e	0.037269942
37	0xbe03abd1	-0.12858512
38	0x3e893e92	0.2680555
39	0x3d6e5cbb	0.058193903
40	0x3e234de6	0.15947685
41	0x3e444c28	0.19169676
42	0xbe78d121	-0.24298526
43	0x3d950053	0.072754525
44	0xbca3ac62	-0.01997966
45	0xbe553838	-0.20822227
46	0xbd376efb	-0.044783574
47	0x3e144eca	0.1448318
48	0x3e232e69	0.15935673
49	0xbd9aaddd	-0.07552693
50	0x3e14ca07	0.14530192
51	0xbe05bff6	-0.13061509
52	0x3e160ebf	0.14654063
53	0xbdc4e97e	-0.096148476
54	0x3e1703d2	0.14747551
55	0x3dab5454	0.08365694
56	0xbcf38e23	-0.029730862
57	0xbcc8e050	-0.024521023
58	0x3e2d5417	0.16926609
59	0x3ce8a21e	0.028397616
60	0xbd93a585	-0.07209305
61	0xbdadaedd	-0.08480618
62	0x3d921f83	0.07134917
63	0xbcc110b9	-0.023567544
64	0x3e720498	0.23634565
65	0xba6abc77	-0.0008954475
66	0x3d31639e	0.043307893
67	0xbe3878ed	-0.1801488
68	0xbd89c054	-0.06726137
69	0x3d26832a	0.04065243
70	0x3e5f05f4	0.21779615
71	0xbda345b7	-0.079722814
72	0xbdf73d81	-0.12072278
73	0x3e93eae2	0.2889014
74	0xbe6843c8	-0.22682106
75	0x3db8a60c	0.09016046
76	0x3e8057a1	0.25066856
77	0xbce90cb6	-0.028448444
78	0x3e4a4026	0.19751033
79	0x3daca739	0.08430333
80	0xbe653d8b	-0.22386758
81	0x3df6f7df	0.120589964
82	0x3de3bcf4	0.11120024
83	0xbd23a416	-0.039951406
84	0xbd877122	-0.06613375
85	0xbdbed0b1	-0.093171485
86	0x3d7f07db	0.06226335
87	0xbd39b194	-0.045335367
88	0xbdd4431f	-0.10364365
89	0x3dbfb900	0.09361458
90	0x3e56e408	0.20985425
91	0x3e03873b	0.12844555
92	0x3ab26549	0.0013610508
93	0x3e0413f1	0.12898232
94	0x3dace39d	0.08441851
95	0xbe9038db	-0.28168377
96	0x3e2e7e5f	0.17040394
97	0x3d0184d9	0.031620834
98	0x3d116ac6	0.035502218
99	0x3d854306	0.06506924
100	0x3c1f0146	0.009704893
101	0x3d0138ab	0.031548183
102	0xbd1af102	-0.0378275
103	0xbdb6e17b	-0.08929726
104	0x3d5dbaea	0.054133333
105	0xbd275f39	-0.040862296
106	0xbd61ed06	-0.055157684
107	0xbc6a6bac	-0.014307898
108	0x3eb16fd1	0.34655622
109	0x3ceaeae4	0.028676458
110	0x3e0a5754	0.13509876
111	0xbd9bb77e	-0.07603358
112	0x3e30a9f9	0.1725234
113	0xbe7d1541	-0.24715139
114	0x3e880fcd	0.26574555
115	0x3da9669c	0.08271524
116	0xbdc01da6	-0.09380655
117	0xbc1da79f	-0.0096224835
118	0xbc63313d	-0.01386672
119	0xbd10c5e8	-0.035344988
120	0xbc118da3	-0.0088838665
121	0x3e16c2a0	0.14722681
122	0x3d0e2d3e	0.034711115
123	0x3e361781	0.17782404
124	0x3d9744a9	0.07386143
125	0xbe0068f4	-0.12540036
126	0xbdb3f525	-0.08786992
127	0x3d846232	0.06464042
128	0x3d9a5ccc	0.07537231
129	0x3e301274	0.1719454
130	0xbe4d2605	-0.20034035
131	0x3dae5bfb	0.08513638
132	0x3e19006e	0.1494157
133	0xbd884b95	-0.06655041
134	0xbe8586b4	-0.26079333
135	0x3e536afa	0.20646277
136	0xbe0647fc	-0.13113397
137	0xbde59992	-0.11210932
138	0xbbc5c95a	-0.006035966
139	0x3d5624a4	0.052281037
140	0xbcbf04da	-0.023317743
141	0x3c3c2f9f	0.011485963
142	0x3d98f8a1	0.07469297
143	0x3d375022	0.044754155
144	0xbe05645c	-0.13026565
145	0x3da6cbdd	0.081443526
146	0x3e330c03	0.17485051
147	0x3d6454a1	0.05574477
148	0xbd0b49ae	-0.034005813
149	0x3d62f66a	0.05541078
150	0x3d41c737	0.047309127
151	0xbd14e25e	-0.036348693
152	0x3d07ad6d	0.033124376
153	0x3cac2210	0.021012336
154	0xbd1d4f3e	-0.03840565
155	0xbd2e405f	-0.042541858
156	0xbddd8601	-0.10816575
157	0x3e65c002	0.22436526
158	0x3eb94f11	0.36193135
159	0x3b78041c	0.0037844246
160	0xbe2b66f8	-0.16738498
161	0xbd8f503d	-0.06997726
162	0x3d8875a8	0.06663066
163	0xbe2f45c2	-0.17116454
164	0x3e290bba	0.1650838
165	0x3d6e886e	0.05823558
166	0x3d308a05	0.043100376
167	0x3c36a0e0	0.011146754
168	0xbe0b886b	-0.13626258
169	0x3e3079ec	0.1723401
170	0x3cd98932	0.026554678
171	0x3ddbc1e4	0.10730341
172	0x3c4dc597	0.012559316
173	0x3d493fa9	0.049132977
174	0x3e787cdc	0.2426638
175	0xbde13624	-0.10996655
176	0x3dcd86ff	0.10035514
177	0x3d4e6ce5	0.05039682
178	0x3e0b8ced	0.13627978
179	0xbddbf09e	-0.107392535
180	0xbbd1f52d	-0.006407401
181	0xbd96e2a8	-0.0736745
182	0x3cb5d6f8	0.022197232
183	0x3d72cf37	0.059279647
184	0x3dc36ef1	0.09542645
185	0x3d81650d	0.06318102
186	0x3d07702b	0.033065956
187	0x3e599ad5	0.2125047
188	0xbcb78338	-0.022401437
189	0xbc5fcbb1	-0.013659404
190	0x3df2fcac	0.118645996
191	0xbdd74f5e	-0.10513185
192	0x3cc4aa63	0.024007028
193	0xbd12a826	-0.03580489
194	0x3d407a63	0.046991717
195	0xbc019ed3	-0.007911402
196	0x3e0d6617	0.13808475
197	0xbe0a2a4c	-0.13492697
198	0x3dd16544	0.10224393
199	0x3c1c78c9	0.009550282
200	0x3e2b77fc	0.16744989
201	0xbe1f3e07	-0.15551005
202	0x3ccdc605	0.025118837
203	0xbd0c5aac	-0.03426616
204	0x3cff46aa	0.031161625
205	0x3da1155b	0.07865401
206	0x3edd9f2e	0.43285507
207	0xbdc5e8fe	-0.0966358
208	0xbdd0cd69	-0.10195429
209	0x3d55bb6f	0.052180704
210	0xbd982d53	-0.0743052
211	0xbd874bd1	-0.06606258
212	0x3dc14c50	0.094383836
213	0x3e12b5b7	0.14327131
214	0x3d954d6d	0.072901584
215	0xbe6e59b0	-0.232764
216	0x3cb6794c	0.022274636
217	0x3e6f9e62	0.23400262
218	0xbe16868e	-0.14699766
219	0x3d952daf	0.07284104
220	0x3cc40603	0.023928648
221	0xbda30b65	-0.07961158
222	0xbda5c2ba	-0.08093782
223	0xbd94b778	-0.072615564
224	0xbe38ba11	-0.18039729
225	0xbd81ba68	-0.06334382
226	0x3ee0ceae	0.43907684
227	0x3def78e0	0.11692977
228	0xbb74feea	-0.0037383386
229	0x3da9f80d	0.08299265
230	0xbdbf9c23	-0.093559526
231	0xbbe2346e	-0.0069032228
232	0xbd948fa4	-0.0725396
233	0x3bb3e5e6	0.0054900525
234	0x3e86d6a4	0.26335633
235	0xbe9fa022	-0.3117686
236	0xbdfd4217	-0.12366121
237	0xbdd16c43	-0.102257274
238	0xbc8ddb35	-0.01731644
239	0x3e1bca47	0.15213881
240	0x3d5011a6	0.05079808
241	0xbda97ea3	-0.08276107
242	0xbd8223fc	-0.0635452
243	0x3e09328c	0.13398188
244	0xbdb58742	-0.08863689
245	0xbd113760	-0.0354532
246	0x3e2bfa42	0.16794685
247	0xbdf27f7c	-0.11840722
248	0xbda37e4e	-0.07983075
249	0x3daad1a7	0.08340769
250	0xbd90ff75	-0.070799746
251	0x3df349bc	0.11879298
252	0xbdd1dcb0	-0.10247171
253	0x3e85a202	0.26100165
254	0xbd093624	-0.0334989
255	0xbcffe4b8	-0.031236991

bias f4 [512]
0	0x39ef5308	0.00045647495
1	0x39894929	0.00026185185
2	0x382b1dd8	4.079737e-05
3	0x38701d70	5.7247875e-05
4	0x399e7ce1	0.0003022915
5	0x39a46f7d	0.00031363583
6	0xb8449838	-4.6871806e-05
7	0xb96c864e	-0.00022556746
8	0x3870f301	5.7446774e-05
9	0x38b5e9cf	8.674303e-05
10	0xb90eb334	-0.00013608934
11	0xb845c20a	-4.7149173e-05
12	0x389e22e7	7.540528e-05
13	0xba28480c	-0.0006419427
14	0xba9db684	-0.0012032543
15	0x3903134f	0.00012500327
16	0xb9aaa986	-0.00032551232
17	0xb6ced566	-6.1641213e-06
18	0xb9097fb9	-0.00013112919
19	0xba3c615d	-0.0007186139
20	0xb80bda02	-3.3343218e-05
21	0x38ab3edf	8.165626e-05
22	0xb97532f0	-0.00023383996
23	0xb96a2c75	-0.0002233254
24	0xb9cf0945	-0.00039489023
25	0xb83eca85	-4.548814e-05
26	0x3813b1d9	3.5213165e-05
27	0xb846ca50	-4.7395297e-05
28	0xb87a0ba3	-5.9615482e-05
29	0xb9398675	-0.00017693064
30	0x378f32b9	1.7070548e-05
31	0xb8a78773	-7.98841e-05
32	0xb92b6379	-0.00016344887
33	0x3a15c7f0	0.0005713692
34	0x39f56f01	0.00046812746
35	0xb8da1cb5	-0.00010400397
36	0xb99509c9	-0.00028426785
37	0x388bd799	6.668195e-05
38	0xb79e87fb	-1.8898389e-05
39	0x3967db98	0.00022111682
40	0x3978cd43	0.00023727589
41	0xb800d984	-3.0720155e-05
42	0xb94dc4f8	-0.000196237
43	0x38ab6cd0	8.174183e-05
44	0x36595f2f	3.2390924e-06
45	0xb8b350fe	-8.550471e-05
46	0xb828509f	-4.0129406e-05
47	0x384b0088	4.8399466e-05
48	0xb95b7a30	-0.00020930986
49	0x38d13c4a	9.977126e-05
50	0xb8c02fd7	-9.164184e-05
51	0xb8d06f80	-9.9389814e-05
52	0x3a0b026d	0.00053027907
53	0xb95dda72	-0.0002115758
54	0x39cd762d	0.00039188695
55	0x386cc404	5.644934e-05
56	0x3720f79c	9.594394e-06
57	0x3a503eb7	0.00079439156
58	0xb7a81ad7	-2.0039659e-05
59	0xb7ccb285	-2.4401825e-05
60	0x3a06a06d	0.00051355996
61	0x3743bc50	1.1666751e-05
62	0xb78669e6	-1.6023358e-05
63	0xb87514f7	-5.8432077e-05
64	0x39df2978	0.0004256477
65	0xb9d562cf	-0.00040700144
66	0xb93bb7bd	-0.00017902158
67	0xb9f730fe	-0.00047148013
68	0xb903f74a	-0.00012585256
69	0xb9140b13	-0.00014118505
70	0xb9b34934	-0.0003419608
71	0x37ea21dc	2.791074e-05
72	0x39009465	0.00012262313
73	0x38f262e9	0.00011557883
74	0x376d0709	1.4127939e-05
75	0xb900f43e	-0.00012298019
76	0x388508f8	6.343605e-05
77	0x3962bf7f	0.00021624377
78	0x395c7149	0.00021023037
79	0x3885ae2a	6.374375e-05
80	0xb7bc7dac	-2.2469867e-05
81	0xb84acaa3	-4.8349273e-05
82	0xb6b47be5	-5.3788413e-06
83	0x36d206a7	6.259262e-06
84	0x36b0b74b	5.266547e-06
85	0xb90e8774	-0.00013592636
86	0xb71e2eaa	-9.428399e-06
87	0xb93c6aa8	-0.0001796881
88	0x390993ae	0.00013120353
89	0x39141dc7	0.00014125473
90	0x389e56bc	7.5501826e-05
91	0x37633e12	1.3544706e-05
92	0x37113171	8.654185e-06
93	0xb775f87d	-1.4660994e-05
94	0xb8903666	-6.8765876e-05
95	0x38839fee	6.276356e-05
96	0xb9da013f	-0.0004158113
97	0xb9396d75	-0.00017683751
98	0xba1c9b7d	-0.00059740973
99	0xb7545b1a	-1.2657396e-05
100	0x39f334ce	0.00046387914
101	0xb8cb3357	-9.689357e-05
102	0xb8648551	-5.4483597e-05
103	0xb89e2667	-7.54118e-05
104	0xb8324c26	-4.2509426e-05
105	0x3862b428	5.4050382e-05
106	0x398e0b71	0.00027092875
107	0xb8d0dccc	-9.9593395e-05
108	0xb915af8a	-0.0001427514
109	0xb710666f	-8.6069185e-06
110	0x387491dc	5.8309975e-05
111	0xb904b7b1	-0.00012656931
112	0xb8da3dbf	-0.00010406551
113	0xb9544d9a	-0.00020246804
114	0xb7c43a1b	-2.3392078e-05
115	0x39ae43ca	0.00033238373
116	0x37bc40b6	2.244148e-05
117	0x388d9794	6.7516376e-05
118	0x396f765e	0.00022836911
119	0xb8ac227b	-8.2080216e-05
120	0xb89b575a	-7.4072464e-05
121	0xb67188fa	-3.599153e-06
122	0x39415eb9	0.00018441201
123	0x38cd4e54	9.7897515e-05
124	0x374241ef	1.1578652e-05
125	0xb8085644	-3.2505268e-05
126	0x3800fa5e	3.075075e-05
127	0x3910d9a8	0.00013813993
128	0xb8b70e99	-8.728839e-05
129	0x38f99f1d	0.000119028824
130	0x399c4611	0.00029806842
131	0x385f12ff	5.3185035e-05
132	0x38b1e013	8.481755e-05
133	0xb811c09c	-3.4750075e-05
134	0xb838636e	-4.396162e-05
135	0xb8e3c401	-0.00010860712
136	0xb92bda02	-0.00016389045
137	0x38781f7c	5.915713e-05
138	0x39c7ed0a	0.00038132846
139	0x38e15707	0.00010745046
140	0xb8cece73	-9.8612996e-05
141	0xb8c5ac54	-9.4257906e-05
142	0xb8ad2eeb	-8.258022e-05
143	0xb86cb8f3	-5.6439032e-05
144	0xb8981d53	-7.253387e-05
145	0xb8bea0fa	-9.08989e-05
146	0xb7185a00	-9.080861e-06
147	0xb8248da3	-3.9232556e-05
148	0x38f1b25d	0.00011524998
149	0x3915425b	0.00014234467
150	0xb83ffec8	-4.5775232e-05
151	0xb950294d	-0.00019851812
152	0x395e9fec	0.00021231145
153	0x38bedc53	9.1009446e-05
154	0xb8efdfe5	-0.00011438112
155	0xb955a6ae	-0.00020375356
156	0x38ae9101	8.3239756e-05
157	0xb84ec19f	-4.929455e-05
158	0x391a87e4	0.00014737208
159	0xb89d9572	-7.51418e-05
160	0xb866af51	-5.499955e-05
161	0x375c34a5	1.3125279e-05
162	0xba959c62	-0.0011414404
163	0xb7e4df54	-2.7283713e-05
164	0xb6878a9f	-4.039451e-06
165	0x38250b0d	3.9349357e-05
166	0xb817f904	-3.623312e-05
167	0xb7ee0c80	-2.8377632e-05
168	0xb8f54ff7	-0.00011697405
169	0x38f39f22	0.00011616784
170	0xb6868231	-4.0086675e-06
171	0x37b69773	2.1766615e-05
172	0xb9ef3a53	-0.00045629087
173	0xb9378734	-0.00017502607
174	0xb85f6d39	-5.3269065e-05
175	0xb76772af	-1.3795375e-05
176	0x352f0538	6.5200175e-07
177	0xb8c8c797	-9.57392e-05
178	0x38962829	7.160038e-05
179	0x37e4f411	2.729337e-05
180	0x39d1ab62	0.00039991277
181	0xb9fbfcf8	-0.00048062927
182	0xb921b748	-0.00015422434
183	0xb91d18cf	-0.00014981929
184	0x38c674a2	9.4631e-05
185	0x38999379	7.3230774e-05
186	0x3a03467d	0.0005007757
187	0x39b06c62	0.00033650087
188	0xb93aff23	-0.00017833388
189	0xb7548d54	-1.266909e-05
190	0xba141b01	-0.0005649776
191	0xb96cf483	-0.00022597802
192	0x3907ed1a	0.0001296293
193	0xb940cee5	-0.00018387621
194	0x390b2c5f	0.00013272603
195	0xba19e6ef	-0.00058708986
196	0xb970c043	-0.00022959807
197	0xb9f8fede	-0.00047492137
198	0xb8061f63	-3.197732e-05
199	0x3b062a64	0.0020472044
200	0x38840a7a	6.296202e-05
201	0xb888f7d7	-6.531149e-05
202	0xba1ce55e	-0.0005985106
203	0xb85215ec	-5.0088318e-05
204	0xb833ac6e	-4.2837513e-05
205	0x38da0852	0.000103966
206	0x3a080ce2	0.0005189908
207	0x38941251	7.060602e-05
208	0xb8c6e7c0	-9.4845425e-05
209	0x3850377e	4.9642746e-05
210	0x39d422ef	0.0004046182
211	0xba1f3ed3	-0.000607473
212	0xb7b68355	-2.1757247e-05
213	0xb9814200	-0.0002465397
214	0xba04ae2b	-0.00050613534
215	0x39309117	0.00016838718
216	0xb8d0afa7	-9.950931e-05
217	0x3915c79c	0.00014284108
218	0x3a33ecff	0.0006863623
219	0xb93d7aaa	-0.0001807014
220	0xb945a317	-0.0001884814
221	0x36c61ca4	5.904194e-06
222	0x39b975b4	0.00035373645
223	0xb91d7dc7	-0.00015019542
224	0xb755210f	-1.2703486e-05
225	0xb9bf942d	-0.00036540758
226	0x389d9ca3	7.515519e-05
227	0x396df1e7	0.00022692197
228	0x3832d796	4.2639287e-05
229	0xb86fddcb	-5.71886e-05
230	0xb8dbf765	-0.000104888146
231	0x38ab4608	8.16696e-05
232	0xb934d2c2	-0.00017244651
233	0x38cdc699	9.8121534e-05
234	0x38361052	4.340738e-05
235	0x3909b140	0.00013131369
236	0x38de6fc2	0.000106066014
237	0xb9b6e3e0	-0.00034883525
238	0x39b69be7	0.000348299
239	0xb7ae9a62	-2.0814306e-05
240	0x3728c418	1.0059237e-05
241	0x380bfb72	3.337436e-05
242	0x39a089fd	0.00030620387
243	0xb71a0e19	-9.182398e-06
244	0xb93926fb	-0.00017657496
245	0x37b86dfb	2.1985723e-05
246	0x3a1e2216	0.0006032301
247	0xb9df84f5	-0.00042632935
248	0xb9182f25	-0.00014513412
249	0xb8ff9d4c	-0.00012188646
250	0x38b043f6	8.404993e-05
251	0xb9fd2a89	-0.00048287612
252	0x37c7697c	2.3771769e-05
253	0x383cb5fe	4.4992186e-05
254	0x39098a58	0.00013116875
255	0x3628844a	2.5110953e-06

weight f4 [512]
0	0x3f76e0de	0.9643687
1	0x3f7a41de	0.97756755
2	0x3f807faa	1.003896
3	0x3f7ee8d9	0.9957405
4	0x3f78ee22	0.9723836
5	0x3f773f17	0.9658064
6	0x3f72a227	0.94778675
7	0x3f7f0ac6	0.99625814
8	0x3f82fcbb	1.0233377
9	0x3f7da0eb	0.99073666
10	0x3f7cad08	0.98701525
11	0x3f7c7650	0.9861803
12	0x3f86f5bf	1.0543746
13	0x3f84abc3	1.0364918
14	0x3f76a457	0.9634451
15	0x3f779476	0.9671091
16	0x3f7f921d	0.99832326
17	0x3f741382	0.95342267
18	0x3f76543b	0.96222275
19	0x3f7d9d15	0.99067813
20	0x3f947582	1.159836
21	0x3f75d1fc	0.96023536
22	0x3f80a19f	1.0049323
23	0x3f7f4888	0.9972005
24	0x3f7bcfe4	0.9836409
25	0x3f7d00e6	0.98829496
26	0x3f863b89	1.0486919
27	0x3f7f6907	0.99769634
28	0x3f7fd6a9	0.9993692
29	0x3f82fa31	1.0232602
30	0x3f78b760	0.9715481
31	0x3f8530dd	1.0405537
32	0x3f82d647	1.0221642
33	0x3f8197d7	1.0124463
34	0x3f771ca4	0.9652808
35	0x3f810c05	1.0081793
36	0x3f72c737	0.9483523
37	0x3f8c5e64	1.0966306
38	0x3f7c63e4	0.9858992
39	0x3f7e1c44	0.9926188
40	0x3f789c1b	0.971132
41	0x3f84e1b4	1.0381379
42	0x3f81062c	1.0080009
43	0x3f74b149	0.95583016
44	0x3f729077	0.94751686
45	0x3f814fb8	1.0102453
46	0x3f7bd316	0.98368967
47	0x3f8136dd	1.0094868
48	0x3f7d417e	0.9892806
49	0x3f7fa316	0.99858224
50	0x3f7af879	0.9803539
51	0x3f8542cb	1.0411009
52	0x3f7a214c	0.97707057
53	0x3f89cd18	1.0765715
54	0x3f83cd47	1.0297021
55	0x3f775d2e	0.96626556
56	0x3f81e197	1.014697
57	0x3f82960c	1.0202041
58	0x3f7cabe7	0.986998
59	0x3f77bacf	0.9676942
60	0x3f88a1db	1.0674394
61	0x3f77266e	0.96543014
62	0x3f816bc9	1.0111018
63	0x3f6cbe86	0.92478216
64	0x3f80f763	1.0075496
65	0x3f7a8d55	0.97871906
66	0x3f86ae98	1.0522032
67	0x3f7e585d	0.9935358
68	0x3f754cd2	0.95820343
69	0x3f8de845	1.1086508
70	0x3f808404	1.0040288
71	0x3f7269c7	0.94692653
72	0x3f860015	1.0468775
73	0x3f8516b9	1.039756
74	0x3f711494	0.94172025
75	0x3f86db10	1.0535603
76	0x3f810729	1.008031
77	0x3f74f260	0.95682335
78	0x3f84c1a4	1.0371594
79	0x3f79f105	0.9763339
80	0x3f793c03	0.97357196
81	0x3f7a901d	0.9787615
82	0x3f7d05c1	0.98836905
83	0x3f81097e	1.0081022
84	0x3f84cd32	1.0375121
85	0x3f8020f9	1.0010062
86	0x3f82b9a0	1.0212898
87	0x3f8310c4	1.0239491
88	0x3f825873	1.0183243
89	0x3f87aabb	1.0598978
90	0x3f7c8084	0.986336
91	0x3f825e7d	1.0185086
92	0x3f6f30a6	0.93433607
93	0x3f7ec025	0.9951194
94	0x3f73ce54	0.95236707
95	0x3f800600	1.0001831
96	0x3f8110da	1.0083268
97	0x3f87e8ea	1.0617955
98	0x3f893b70	1.0721264
99	0x3f79ff66	0.9765533
100	0x3f837ae0	1.0271873
101	0x3f7bf1ab	0.9841563
102	0x3f7850bd	0.96998197
103	0x3f812e2a	1.0092213
104	0x3f87be9e	1.0605047
105	0x3f827b86	1.0193946
106	0x3f8043a5	1.0020643
107	0x3f85e30e	1.0459917
108	0x3f78971b	0.9710557
109	0x3f7c4cbb	0.9855458
110	0x3f7cfef2	0.98826516
111	0x3f84f446	1.0387046
112	0x3f7eec51	0.9957934
113	0x3f8653cf	1.0494326
114	0x3f7270ee	0.9470357
115	0x3f819047	1.0122155
116	0x3f7a9bff	0.9789428
117	0x3f8b941d	1.0904576
118	0x3f81e78d	1.0148789
119	0x3f830924	1.0237164
120	0x3f7e13cc	0.9924896
121	0x3f88ccaa	1.0687459
122	0x3f7ff602	0.99984753
123	0x3f7729fe	0.9654845
124	0x3f840dd3	1.0316719
125	0x3f7adef6	0.9799646
126	0x3f8624c3	1.0479969
127	0x3f785417	0.9700331
128	0x3f7413f6	0.9534296
129	0x3f7e60c2	0.9936639
130	0x3f8003f3	1.0001205
131	0x3f6cbdad	0.9247692
132	0x3f77afb9	0.96752506
133	0x3f80a756	1.0051067
134	0x3f7eba6c	0.9950321
135	0x3f7ac15e	0.97951305
136	0x3f8009b1	1.0002958
137	0x3f83f3bc	1.0308757
138	0x3f8daf74	1.1069169
139	0x3f82d5af	1.0221461
140	0x3f8054b8	1.0025854
141	0x3f838cfa	1.0277398
142	0x3f78fcd1	0.9726077
143	0x3f7003a4	0.93755555
144	0x3f816287	1.0108193
145	0x3f7c0d35	0.9845765
146	0x3f818c35	1.0120913
147	0x3f805d9c	1.0028567
148	0x3f79a15b	0.97511834
149	0x3f7c3bf0	0.9852896
150	0x3f82b582	1.0211642
151	0x3f825b23	1.0184063
152	0x3f865c96	1.0497005
153	0x3f75bf52	0.95995057
154	0x3f7d945e	0.99054515
155	0x3f873056	1.0561626
156	0x3f8536f9	1.0407401
157	0x3f822f06	1.01706
158	0x3f83c9cd	1.029596
159	0x3f80b470	1.0055065
160	0x3f77226a	0.96536887
161	0x3f7cce1a	0.98751986
162	0x3f80c248	1.005929
163	0x3f79121d	0.97293264
164	0x3f7f96a0	0.9983921
165	0x3f7d17dc	0.9886453
166	0x3f7dfaa0	0.9921055
167	0x3f6f5033	0.9348175
168	0x3f807338	1.0035162
169	0x3f857f05	1.0429388
170	0x3f83534e	1.0259798
171	0x3f819e5b	1.0126451
172	0x3f7be6e4	0.98399186
173	0x3f80488b	1.0022138
174	0x3f774553	0.96590155
175	0x3f82c398	1.021594
176	0x3f7744ba	0.96589243
177	0x3f81dfbb	1.0146402
178	0x3f85540b	1.0416273
179	0x3f7c38a4	0.98523927
180	0x3f8263a3	1.0186657
181	0x3f892460	1.0714226
182	0x3f878b0d	1.058931
183	0x3f77ecee	0.968459
184	0x3f808552	1.0040686
185	0x3f69ace9	0.91279465
186	0x3f7f8320	0.99809456
187	0x3f7e0c3d	0.99237424
188	0x3f7b6e3e	0.9821509
189	0x3f819534	1.0123658
190	0x3f83e1bc	1.0303264
191	0x3f78e07a	0.97217524
192	0x3f84184c	1.0319915
193	0x3f83178b	1.024156
194	0x3f753016	0.957765
195	0x3f825192	1.0181143
196	0x3f787492	0.9705287
197	0x3f854b58	1.0413618
198	0x3f7d9a3b	0.9906346
199	0x3f803b3a	1.0018075
200	0x3f7ee474	0.9956734
201	0x3f7cbe17	0.98727554
202	0x3f79df0f	0.97605985
203	0x3f888091	1.0664235
204	0x3f8323a9	1.0245258
205	0x3f7feb14	0.99968076
206	0x3f829a29	1.0203296
207	0x3f7b0a8e	0.9806298
208	0x3f82b7b9	1.0212318
209	0x3f71a7c7	0.9439663
210	0x3f783624	0.9695761
211	0x3f7cc0f9	0.9873195
212	0x3f7d1519	0.9886032
213	0x3f80394a	1.0017483
214	0x3f81ef23	1.0151104
215	0x3f88edf0	1.0697613
216	0x3f7847bc	0.9698446
217	0x3f716484	0.94294
218	0x3f794c66	0.973822
219	0x3f7cd165	0.9875701
220	0x3f8390c7	1.0278558
221	0x3f813c00	1.0096436
222	0x3f7c5f57	0.9858298
223	0x3f828b06	1.0198677
224	0x3f8156a8	1.010457
225	0x3f81ab3b	1.013038
226	0x3f7e3f20	0.9931507
227	0x3f815639	1.0104438
228	0x3f8840fa	1.0644829
229	0x3f7f1df2	0.9965507
230	0x3f6bf60f	0.9217233
231	0x3f75de6a	0.960425
232	0x3f7cb495	0.98713046
233	0x3f71907b	0.94361085
234	0x3f7fe6b8	0.99961424
235	0x3f79d54d	0.97591096
236	0x3f76ca3f	0.96402353
237	0x3f7aad65	0.9792083
238	0x3f82dcd0	1.0223637
239	0x3f82c6e1	1.0216943
240	0x3f86261e	1.0480382
241	0x3f86039c	1.0469851
242	0x3f81cfc5	1.0141531
243	0x3f8139ab	1.0095724
244	0x3f7ec87d	0.9952467
245	0x3f75624d	0.9585312
246	0x3f786f3e	0.9704474
247	0x3f7d0398	0.9883361
248	0x3f780cbc	0.9689443
249	0x3f7ee0bf	0.99561685
250	0x3f7ca1bf	0.98684305
251	0x3f7a4591	0.977624
252	0x3f7f80c1	0.9980584
253	0x3f83e01f	1.0302771
254	0x3f84316c	1.0327582
255	0x3f71a9ea	0.94399893
